models/actor_100000.pth (torch, 47307 bytes, 14 tensors)

network.0.weight f4 [64, 20]
0	0x3df3bcd2	0.11901249
1	0xbe3cdd1f	-0.18443726
2	0x3e9608b9	0.2930353
3	0xbd8534fb	-0.06504246
4	0xbea54f25	-0.32286945
5	0xbe522d31	-0.20525052
6	0xbe923ed1	-0.2856355
7	0x3e90e24a	0.28297645
8	0x3e6845c0	0.22682858
9	0x3e2fd6df	0.1717181
10	0xbe74b2e5	-0.23896368
11	0x3e5c9886	0.21542558
12	0x3dea3db4	0.1143755
13	0xbc8e95a2	-0.017405335
14	0xbe5e2d14	-0.21696883
15	0x3db89f40	0.090147495
16	0x3d197b52	0.037471123
17	0x3d5c0756	0.053717934
18	0xbd30b266	-0.043138884
19	0xbe6405a7	-0.22267781
20	0x3e18cb60	0.14921331
21	0x3e5a4184	0.21314055
22	0xbf01a8f2	-0.50648415
23	0x3e030994	0.12796623
24	0x3eb86e03	0.36021432
25	0x3edf5104	0.43616498
26	0xbe9500a7	-0.2910206
27	0xbf0dad3c	-0.5534246
28	0xbdfff4b1	-0.12497843
29	0x3fa6a999	1.3020507
30	0xbcdbeb23	-0.02684552
31	0xbe957c05	-0.29196182
32	0x3a6fc825	0.00091469503
33	0xbe09c6a3	-0.1345468
34	0x3dbcfabe	0.09227513
35	0xbe30c76a	-0.1726357
36	0xbd815963	-0.06315877
37	0xbd55bc4e	-0.052181534
38	0xbdae4509	-0.08509261
39	0x3d92b332	0.07163085
40	0x3de1f9e7	0.11033993
41	0xbd400419	-0.046878908
42	0x3e9a1aa9	0.30098465
43	0xbe08891c	-0.13333553
44	0xbd7149df	-0.05890834
45	0xbd71baf7	-0.059016194
46	0x3e96f5e7	0.29484484
47	0x3ee17ca9	0.4404042
48	0x3ebb1f21	0.36547187
49	0xbfc2e55b	-1.5226244
50	0x3ebdc831	0.37066796
51	0x3f911d72	1.1337111
52	0x3cf20d0c	0.029547237
53	0x3e6cef22	0.23138097
54	0xbe5de8ad	-0.2167079
55	0x3e54b364	0.20771557
56	0xbe45f33a	-0.19331065
57	0x3cbbb72b	0.02291449
58	0x3e091b09	0.1338922
59	0x3d94b536	0.07261126
60	0xbd629321	-0.055316094
61	0x3da81cb1	0.082085975
62	0xbe45191d	-0.19247861
63	0x3d212639	0.039343093
64	0x3e2f8c6b	0.17143409
65	0xbe8d8f4d	-0.27648392
66	0xbeef02d7	-0.46681854
67	0x3d734250	0.059389412
68	0xbf3b8227	-0.7324547
69	0x3e662a88	0.22477162
70	0x3e8ffd16	0.28122777
71	0xbe092610	-0.13393426
72	0xbd9bcbfa	-0.07607265
73	0xbe4f6602	-0.20253757
74	0xbc1d5d8f	-0.009604826
75	0x3e3ce0dc	0.18445152
76	0xbe5a77ec	-0.21334809
77	0xbdad3377	-0.08457082
78	0xbd2bc7cc	-0.041938588
79	0x3e1e1658	0.15438211
80	0xbe4f09e4	-0.20218617
81	0x3e57043e	0.20997712
82	0xbc85311b	-0.016258767
83	0x3f1deb8d	0.61687547
84	0x3e702da4	0.2345491
85	0x3f46da8f	0.77677244
86	0xbbfe190b	-0.00775445
87	0x3e2b5274	0.16730672
88	0x3cca47ee	0.024692502
89	0xbee2c2f5	-0.44289365
90	0x3c89ab71	0.016805382
91	0x3e978839	0.29596117
92	0xbea734d0	-0.3265748
93	0x3e5ff6bb	0.21871464
94	0x3e1a7501	0.15083696
95	0x3ddb222e	0.10699879
96	0xbda0a4ac	-0.07843909
97	0xbd9d9060	-0.07693553
98	0xbe1919a3	-0.14951186
99	0xbe47ad67	-0.19499741
100	0x3e575e24	0.21032006
101	0x3e4a88a8	0.19778693
102	0x3cc36687	0.0238526
103	0xbeec6628	-0.4617169
104	0x3cfcdec4	0.030867942
105	0xbec7f9fa	-0.39057904
106	0xbc997012	-0.018730197
107	0x3ed79bb0	0.42110968
108	0x3e28976a	0.1646401
109	0xbf2a1e89	-0.6645284
110	0x3d6b8347	0.057498243
111	0x3e903ba0	0.2817049
112	0x3d2a203b	0.041534644
113	0x3eaea90a	0.34113342
114	0x3d2d8792	0.042365618
115	0x3e636515	0.22206528
116	0x3e0729df	0.13199566
117	0x3d41c41f	0.047306176
118	0x3e41371c	0.18868679
119	0xbcb6c7bc	-0.022312038
120	0xbe3c44ee	-0.1838567
121	0xbd11d344	-0.03560187
122	0x3e9f8eff	0.31163785
123	0xbeaed6bd	-0.34148207
124	0xbe0456e5	-0.12923773
125	0xbd8e771d	-0.06956313
126	0x3efefdcf	0.49803016
127	0x3d8c517c	0.068514794
128	0x3e10e8fe	0.1415138
129	0xbf1f9b1f	-0.6234607
130	0xbd472422	-0.048618443
131	0x3f141cbd	0.5785635
132	0x3e2ecd58	0.1707052
133	0x3e860d3d	0.26181975
134	0x3e3a557c	0.18196672
135	0x3d82a25a	0.06378622
136	0xbdb3af82	-0.0877371
137	0x3e627dbd	0.22118278
138	0x3e335703	0.17513661
139	0xbe15a823	-0.1461492
140	0x3dbb7d7a	0.09154792
141	0x3df7c92b	0.120989166
142	0x3d861857	0.06547611
143	0x3e718546	0.23585996
144	0xbdf8a616	-0.121410534
145	0x3f0b654d	0.5445145
146	0x3eb5ead8	0.35530734
147	0x3f3cccd7	0.7375006
148	0xbe944901	-0.28961948
149	0x3f612dae	0.87960327
150	0xbd88afe0	-0.066741705
151	0x3f2ffd50	0.687459
152	0x3e8f5d6c	0.28000963
153	0xbefb3f4a	-0.49071723
154	0x3e2f05fd	0.17092128
155	0xbc8f01cd	-0.017456913
156	0x3d862f49	0.06551988
157	0x3e449de7	0.1920086
158	0xbda327c7	-0.07966571
159	0xbc533927	-0.012892044
160	0xbe3bdd1e	-0.18346068
161	0xbe2ef8ef	-0.17087148
162	0x3e177139	0.14789285
163	0x3e8793e7	0.26480028
164	0xbdd8a94b	-0.10579165
165	0x3e8b5131	0.27210382
166	0xbdab98f7	-0.08378785
167	0xbeda33bc	-0.42617595
168	0x3e823691	0.25432256
169	0x3e4c82b7	0.19971739
170	0xbe0aefba	-0.13568011
171	0xbe1d4b15	-0.15360673
172	0xbe8914cb	-0.26773676
173	0x3eb26fc8	0.34850907
174	0xbdcb22bd	-0.09918735
175	0xbd26568f	-0.040609892
176	0xbcd18c0e	-0.025579479
177	0x3d3f4359	0.046695087
178	0xbb4b0cfa	-0.0030983076
179	0x3e2d0f89	0.16900457
180	0x3e48be29	0.1960379
181	0xbd0e851c	-0.03479491
182	0x3d8a88b7	0.067643575
183	0xbcee5097	-0.029091163
184	0x3ed3e5ce	0.41386265
185	0x3f1d2934	0.61390996
186	0xbe3884cc	-0.18019408
187	0xbf89b667	-1.075879
188	0x3e1835b9	0.14864244
189	0x3ec274f5	0.37979856
190	0x3edd85b9	0.43266085
191	0x3e37cc8e	0.17949125
192	0xbd6ba707	-0.057532337
193	0x3e957004	0.29187024
194	0xbe2a517b	-0.16632645
195	0xbe0ff86e	-0.14059612
196	0xbd93f375	-0.0722417
197	0x3d53d346	0.051715158
198	0xbe521868	-0.20517123
199	0x3ccf9f00	0.025344372
200	0x3d093e5c	0.033506736
201	0x3e3f46e9	0.18679394
202	0x3d950a7a	0.07277389
203	0x3dddc3dc	0.10828373
204	0x3e1f21db	0.15540259
205	0x3e7ab906	0.24484643
206	0xbe9b4101	-0.30323032
207	0x3e5660b4	0.20935327
208	0xbedac1a2	-0.42725855
209	0xbed9b535	-0.42521062
210	0xbe74dd5b	-0.23912565
211	0xbd9d59d1	-0.07683147
212	0x3c91ed46	0.017813336
213	0xbf507990	-0.8143549
214	0xbdea3c45	-0.11437277
215	0xbd47988e	-0.04872947
216	0xbad19995	-0.0015991206
217	0x3de894fc	0.113565415
218	0x3e4d6e00	0.20061493
219	0x3e39a559	0.18129481
220	0x3db0950c	0.086221784
221	0x3d3b5b20	0.0457412
222	0x3d7bb0aa	0.061447777
223	0xbd9cc146	-0.076540515
224	0xbe9018fc	-0.28144062
225	0xbeec799e	-0.46186537
226	0xbe76b548	-0.24092591
227	0x3f0a53a3	0.5403387
228	0xbd618d1f	-0.055066224
229	0xbefd2f79	-0.4945028
230	0xbe814bd9	-0.2525318
231	0xbdb45a36	-0.08806269
232	0x3df25c20	0.11833978
233	0x3d682dc0	0.056684256
234	0xbdb5db30	-0.08879697
235	0x3e2b06e3	0.16701846
236	0x3e04c5f7	0.12966143
237	0x3e1ea369	0.15492024
238	0xbd9906dd	-0.07472012
239	0xbe1e9468	-0.154863
240	0xbdf135c2	-0.117778316
241	0xbc9f1501	-0.019419195
242	0xbe649c49	-0.22325243
243	0xbe04b38d	-0.12959118
244	0x3dc21b1f	0.09477829
245	0xbdf38c5d	-0.118920065
246	0xbe4ee102	-0.20203021
247	0x3c3958c4	0.011312667
248	0x3e252c22	0.16130117
249	0x3f3dadd9	0.74093395
250	0xbe2d3fdf	-0.16918896
251	0xbe97108d	-0.29504815
252	0x3f139808	0.57653856
253	0x3efc6634	0.49296725
254	0xbe5a83f5	-0.213394
255	0xbd628694	-0.055304125

network.0.bias f4 [64]
0	0x3e1b8511	0.1518748
1	0x3e58cd66	0.21172103
2	0xbde5b302	-0.11215784
3	0x3e951ee3	0.29125127
4	0xbe13ac84	-0.14421278
5	0xbe0b2d09	-0.13591398
6	0x3e1ea73b	0.15493481
7	0xbdafc030	-0.08581579
8	0x3e2a25b0	0.16615939
9	0x3d9a05fc	0.07520673
10	0xbe2aefba	-0.16693011
11	0x3cb14782	0.021640543
12	0xbddb756d	-0.107157566
13	0x3e98e6d8	0.2986362
14	0x3d888d45	0.0666757
15	0x3efae59f	0.49003312
16	0x3d19160a	0.037374534
17	0x3bc0e93c	0.0058871787
18	0xbd3c6079	-0.04599044
19	0xbec04cb5	-0.37558523
20	0xbd7a99c6	-0.061181806
21	0x3d9a3fa2	0.07531668
22	0xbe8ae8f3	-0.2713085
23	0x3cbcecf8	0.023062214
24	0x3e257501	0.16157915
25	0x3e4abd64	0.1979881
26	0xbe1e2713	-0.15444593
27	0xbb54e46c	-0.0032484783
28	0xbe4a8e10	-0.19780755
29	0xbe932276	-0.2873723
30	0xbe691abd	-0.22764106
31	0xbdd070fe	-0.101778015
32	0x3e65194b	0.2237293
33	0xbd0a2334	-0.03372498
34	0x3d55e45b	0.05221973
35	0xbe522838	-0.20523155
36	0x3eca22d4	0.39479697
37	0xbd91224f	-0.07086622
38	0x3dc98ba3	0.09841087
39	0x3e65a96d	0.22427912
40	0xbdfe2a2e	-0.12410389
41	0xbe4411ac	-0.19147366
42	0x3d8a33f3	0.0674819
43	0x3e953f48	0.29149842
44	0xbdce2896	-0.10066335
45	0x3e475d71	0.19469239
46	0x3dc5816e	0.096438274
47	0xbe6458e2	-0.22299531
48	0xbe71f0f6	-0.23627076
49	0x3df4c146	0.119509265
50	0xbedf8ff2	-0.4366451
51	0xbe6864a4	-0.22694641
52	0xbe37221d	-0.17884107
53	0xbda53a6c	-0.08067784
54	0x3e0c6021	0.13708545
55	0xbde16509	-0.11005599
56	0xbe38a19c	-0.18030399
57	0xbe5d295a	-0.21597806
58	0x3e6da572	0.23207644
59	0x3e933e59	0.28758505
60	0x3dbf9037	0.09353679
61	0x3ec77771	0.38958314
62	0xbdb62de0	-0.08895469
63	0xbdf349cf	-0.11879312

network.1.weight f4 [64]
0	0x3f83d65f	1.0299796
1	0x3fab4e69	1.3383304
2	0x3fb75a66	1.4324462
3	0x3fa12a1f	1.2590979
4	0x3f711d5f	0.9418544
5	0x3f5692a2	0.83817494
6	0x3f9d1a94	1.2273736
7	0x3fa2c901	1.2717592
8	0x3f71142a	0.9417139
9	0x3f8877fe	1.0661619
10	0x3f80e1da	1.0068924
11	0x3f7d67ff	0.9898681
12	0x3fa51bdf	1.289913
13	0x3f92b459	1.1461288
14	0x3f6f56f4	0.93492055
15	0x3faa9202	1.3325808
16	0x3f4e1bf9	0.8051143
17	0x3f30f9fc	0.69131446
18	0x3f96cfdb	1.1782182
19	0x3f94c843	1.1623615
20	0x3faf5a66	1.3699462
21	0x3fb06c3f	1.3783034
22	0x3f9b0537	1.2110966
23	0x3f9d3c29	1.2283984
24	0x3f9c8719	1.2228729
25	0x3f5b6ad2	0.8570987
26	0x3f814549	1.0099269
27	0x3f3acdbf	0.72970194
28	0x3f97dca7	1.1864213
29	0x3fac50fb	1.3462213
30	0x3f836c6a	1.026746
31	0x3f9f7e2a	1.2460377
32	0x3fb280da	1.3945572
33	0x3f60b836	0.87781084
34	0x3fb95efc	1.4482112
35	0x3f5ff42a	0.8748194
36	0x3fd0209a	1.6259949
37	0x3f8d0635	1.1017519
38	0x3fa7bf25	1.3105208
39	0x3f528a53	0.82242316
40	0x3f91880d	1.1369644
41	0x3f851bdf	1.039913
42	0x3f95d1cf	1.1704654
43	0x3fa6aa7f	1.3020781
44	0x3f8b1762	1.0866511
45	0x3fdaa79e	1.7082403
46	0x3f8a3b7f	1.0799407
47	0x3fa9cfc9	1.3266536
48	0x3f650bd9	0.89471203
49	0x3f646f43	0.8923227
50	0x3f80ce86	1.0063026
51	0x3f5dee1b	0.86691445
52	0x3f7ac6b7	0.97959465
53	0x3fa4804d	1.2851654
54	0x3f55058a	0.83211577
55	0x3f850a95	1.0393854
56	0x3f7f57e6	0.997435
57	0x3f7df0d8	0.99195623
58	0x3fb2653f	1.3937148
59	0x3f7ca9fd	0.9869688
60	0x3f85d603	1.0455936
61	0x3e914ed8	0.28380466
62	0x3fa1881f	1.2619666
63	0x3f836665	1.0265623

network.1.bias f4 [64]
0	0x3e024982	0.12723354
1	0xbdd4b48d	-0.10386
2	0xbd386552	-0.0450185
3	0x3e40384a	0.18771473
4	0xbdf459b3	-0.11931171
5	0xbd35a6ca	-0.044348516
6	0x3bda88e4	0.0066691507
7	0x3c057994	0.008146662
8	0xbd2feb4c	-0.042949006
9	0x3dac5989	0.08415515
10	0xbda96ac3	-0.08272316
11	0x3e5d6fd4	0.2162469
12	0x3d0b9f43	0.03408743
13	0xbba0bc70	-0.004905276
14	0xbe4d009c	-0.20019764
15	0x3e7a4c35	0.24443133
16	0xbdf05543	-0.117350124
17	0xbe04ee73	-0.12981586
18	0xbd90ec8e	-0.07076369
19	0xbdc8fe35	-0.09814111
20	0x3e29d3fa	0.16584769
21	0x3e773ee6	0.24145088
22	0x3d356ab9	0.04429123
23	0x3d6684df	0.05627906
24	0x3e80f840	0.251894
25	0x3d240299	0.04004154
26	0xbe37741a	-0.17915383
27	0x3cf710a2	0.030159298
28	0x3ce9de89	0.028548496
29	0xbe02ebc3	-0.12785248
30	0xbd74d60d	-0.059774447
31	0x3e492a02	0.19644931
32	0xbd87471b	-0.06605359
33	0x3d891943	0.066942714
34	0x3db4c255	0.088261284
35	0x3e343f64	0.17602307
36	0x3e902fed	0.28161564
37	0x3ca2e538	0.01988469
38	0x3d876ecf	0.06612932
39	0xbe934c61	-0.2876921
40	0xbccb1dbf	-0.024794457
41	0x3d4d7d7a	0.050168492
42	0x3e6b02c4	0.22950274
43	0x3e36ca43	0.17850594
44	0x3c90bc55	0.017667929
45	0x3e77ed81	0.24211694
46	0x3dad748f	0.084694974
47	0x3dd6a95b	0.10481521
48	0xbe82ddd0	-0.25559855
49	0xbd7b7964	-0.061395064
50	0xbe623271	-0.22089554
51	0xbda97198	-0.082736194
52	0xbd05d5a4	-0.032674447
53	0x3c8e2682	0.017352346
54	0xbdca8ded	-0.098903514
55	0x3e2c6abc	0.16837591
56	0xbe169ea9	-0.14708962
57	0xbd9ac397	-0.07556837
58	0x3e588e9a	0.21148148
59	0xbd585148	-0.05281189
60	0x3ccff53c	0.025385492
61	0xbf2e6b62	-0.68132603
62	0x3e917dd5	0.28416315
63	0x3db39225	0.08768109

network.3.weight f4 [64, 64]
0	0xbe13288b	-0.14370935
1	0x3e843ba3	0.2582675
2	0x3de2fb95	0.11083142
3	0x3814d5d0	3.5485078e-05
4	0xbe6379e5	-0.22214468
5	0xbdb89afd	-0.09013937
6	0x3d126ba7	0.035747197
7	0xbda54795	-0.08070294
8	0xbecc2ddd	-0.3987874
9	0xbca582d1	-0.02020398
10	0xbd68e417	-0.05685815
11	0x3e336c8b	0.17521875
12	0x3d62fa38	0.05541441
13	0xbe6e3d7a	-0.23265639
14	0xbe816a25	-0.25276294
15	0xbe87c118	-0.26514506
16	0xbedb6363	-0.42849264
17	0xbe4c2fff	-0.19940184
18	0xbec1992c	-0.37812173
19	0x3db34a7f	0.087544434
20	0xbeecb0f5	-0.46228758
21	0x3e89c35d	0.26906863
22	0xbe259e70	-0.1617372
23	0x3e7e070d	0.24807377
24	0xbed4f514	-0.4159323
25	0xbbb65fe9	-0.0055656326
26	0xbe259824	-0.16171318
27	0xbe727f2c	-0.23681325
28	0x3eb45cc2	0.3522702
29	0xbd8d4fee	-0.06900011
30	0xbe722aeb	-0.23649184
31	0x3e7b3178	0.2453059
32	0xbdffd4e1	-0.12491775
33	0xbed4cca6	-0.41562384
34	0xbe590374	-0.21192724
35	0xbebfb47d	-0.3744239
36	0xbde478a3	-0.11155822
37	0xbdd1f73e	-0.10252236
38	0xbe338cc8	-0.17534173
39	0xbe8b7977	-0.27241108
40	0xbe6058cf	-0.21908878
41	0xbc500ee7	-0.0126988655
42	0xbd7ce438	-0.061741084
43	0xbdeda2ad	-0.116032936
44	0xbe5da761	-0.21645881
45	0xbd8a652e	-0.0675758
46	0x3dad931e	0.08475326
47	0x3ed56596	0.41679066
48	0x3d5af433	0.053455543
49	0xbd345fdb	-0.044036727
50	0xbd516bf8	-0.051128358
51	0xbe152e9a	-0.14568558
52	0xbd9ff27b	-0.07809921
53	0x3e782297	0.24231945
54	0xbdee1797	-0.11625593
55	0xbe82425a	-0.25441247
56	0xbe4a8f16	-0.19781145
57	0xbc80ba91	-0.015713962
58	0x3eafc320	0.34328556
59	0xbead1d2e	-0.33811325
60	0x3e4be7c3	0.19912629
61	0xbd9353d1	-0.07193721
62	0x3e4f8bd8	0.2026819
63	0x3ebd74af	0.37003085
64	0xbe30e0d0	-0.17273259
65	0xbf04212a	-0.51613104
66	0x3d2ff9fc	0.042963013
67	0xbf2ca2d4	-0.67435956
68	0x3e4179db	0.1889414
69	0x3d99e277	0.07513898
70	0xbd76ddef	-0.060270246
71	0xbd35fc0b	-0.04442982
72	0x3e270c85	0.1631337
73	0xbd872af3	-0.06599989
74	0x3db10d15	0.08645073
75	0xbe048df7	-0.1294478
76	0x3ed4f6cd	0.41594544
77	0x3bbe911d	0.0058156387
78	0x3e0b14ff	0.13582228
79	0xbdb489bb	-0.088153325
80	0x3ccc1d43	0.024916297
81	0x3e3e9ef5	0.18615325
82	0xbe74e79c	-0.23916477
83	0xbe9850d6	-0.29749173
84	0xbe08b6ce	-0.13350984
85	0xbf220e7b	-0.63303345
86	0x3d428e2c	0.047498867
87	0xbb9c1fbf	-0.0047645266
88	0xbea3fd97	-0.3202941
89	0x3e57dcb2	0.21080282
90	0x3e517fa9	0.20458855
91	0x3e66fd78	0.22557628
92	0xbe69aed8	-0.22820604
93	0x3d4fd3f5	0.050739247
94	0xbf58e0ad	-0.8471783
95	0xbea28e12	-0.31749016
96	0xbf823ae5	-1.0174223
97	0x3de1ce71	0.11025704
98	0x3d9862bf	0.07440709
99	0xbd4659b2	-0.048425384
100	0xbe4232ca	-0.18964687
101	0xbf13a933	-0.5768005
102	0xbed7a0e6	-0.42114943
103	0x3cd74c8c	0.026281618
104	0xbd830f80	-0.06399441
105	0xbe98ff6e	-0.29882377
106	0xbe034cab	-0.12822215
107	0xbd015322	-0.031573422
108	0x3e98c80d	0.29840127
109	0xbfa1e6e7	-1.2648591
110	0x3d8a535a	0.06754179
111	0xbeb3f035	-0.351442
112	0x3e4c09b1	0.19925572
113	0x3e30f761	0.17281868
114	0xbe7f2dc8	-0.24919808
115	0xbd9d23f4	-0.07672873
116	0xbd600d8c	-0.05470042
117	0x3e5178be	0.20456216
118	0x3eabceb9	0.33556154
119	0xbe00e84b	-0.12588613
120	0x3e7bbd6d	0.24583979
121	0x3e37ab37	0.17936407
122	0xbe0eaf69	-0.13934101
123	0x3e974f29	0.29552582
124	0xbda76b97	-0.08174818
125	0x3d879336	0.06619875
126	0xbd97ffec	-0.0742186
127	0x3d2cbc2e	0.04217165
128	0xbe6c3e14	-0.23070556
129	0x3e21e91b	0.15811579
130	0xbde5b351	-0.112158425
131	0x3c1c913b	0.00955611
132	0xbe3f140f	-0.18659995
133	0x3d7c5a14	0.061609343
134	0xbdc67b96	-0.09691541
135	0xbe61c833	-0.22049026
136	0x3d63739d	0.05553018
137	0xbeccd3e0	-0.40005398
138	0xbe03a82d	-0.12857123
139	0x3ea6761a	0.3251198
140	0x3e15e0f5	0.14636596
141	0x3d9d6121	0.076845415
142	0x3dab948a	0.08377941
143	0xbec5eca7	-0.38657114
144	0x3c685c66	0.014182186
145	0xbe66b2a4	-0.22529083
146	0xbead3141	-0.3382664
147	0xbe348da0	-0.1763215
148	0x3ea817fe	0.32830805
149	0x3e58e61b	0.21181528
150	0xbd25f874	-0.040520146
151	0xbbf83037	-0.007574107
152	0x3e84bf20	0.25927067
153	0xbd2d3806	-0.042289756
154	0xbe5a36a0	-0.213099
155	0x3d8042bd	0.06262729
156	0xbf267495	-0.6502164
157	0xbe8c53aa	-0.2740758
158	0x3d1c7905	0.03820135
159	0x3d600c76	0.054699384
160	0x3eee3b72	0.46529728
161	0xbcc45f3e	-0.023971196
162	0xbe39053a	-0.180684
163	0x3dfd2bf8	0.12361902
164	0x3e8afc80	0.27145767
165	0x3e0dcff9	0.13848867
166	0xbbb33102	-0.0054684887
167	0xbd117e1a	-0.03552065
168	0x3e2a258b	0.16615884
169	0xbea20c8b	-0.31650195
170	0xbeebdc3c	-0.46066463
171	0xbdcb5747	-0.09928756
172	0xbe547616	-0.20748171
173	0x3fa2fb90	1.2733021
174	0x3e4eea2e	0.2020652
175	0x3e3dd743	0.18539147
176	0x3df871bc	0.12131068
177	0xbe3420c1	-0.1759062
178	0x3e3ae8ce	0.1825287
179	0xbdc51977	-0.09623998
180	0x3e0624c5	0.13099964
181	0xbef36371	-0.47536805
182	0x3cabaecd	0.020957375
183	0x3e30484a	0.17215076
184	0x3e06980d	0.1314394
185	0x3cd09700	0.025462627
186	0x3e03c59a	0.12868348
187	0xbabf108e	-0.0014577077
188	0x3e2a1421	0.16609241
189	0xbd00ca23	-0.031442773
190	0x3efab98c	0.48969686
191	0xbdece764	-0.11567572
192	0x3e5065d8	0.2035135
193	0xbd2518b5	-0.040306766
194	0x3e936a05	0.28791824
195	0xbec29f4d	-0.38012162
196	0xbcdbeb80	-0.026845694
197	0xbcd2ac16	-0.025716823
198	0x3eb9e2c3	0.36305818
199	0x3db03755	0.08604304
200	0xbe6729ad	-0.22574492
201	0xbddea2f7	-0.10870927
202	0x3ee99710	0.45623064
203	0x3dcadea3	0.09905746
204	0xbeb46124	-0.35230362
205	0xbee0cd48	-0.43906617
206	0xbe069b76	-0.13145241
207	0xbd88fa06	-0.06688313
208	0xbe7ac073	-0.24487476
209	0x3d4e4a35	0.050363738
210	0xbceb3caf	-0.02871546
211	0x3e0d7177	0.13812815
212	0xbfad3f48	-1.3534937
213	0x3e036463	0.12831263
214	0x3d697bfa	0.057003
215	0xbe1db9de	-0.15402934
216	0xbf958d86	-1.1683815
217	0xbdc1e640	-0.09467745
218	0x3ea38364	0.3193618
219	0xbe2c469c	-0.1682381
220	0x3e64ca62	0.22342828
221	0x3e9a6aab	0.30159506
222	0x3eb53343	0.35390672
223	0x3ea403e1	0.3203421
224	0xbf88e483	-1.0694736
225	0xbe18d951	-0.1492665
226	0xbeae65db	-0.34062085
227	0xbf384839	-0.71985203
228	0xbf521c88	-0.82074785
229	0x3ecfa229	0.40553406
230	0xbe95f09b	-0.2928513
231	0xbe4f43c8	-0.202407
232	0xbc94da51	-0.018170508
233	0x3da8b1df	0.08237051
234	0xbe5fbbae	-0.21848938
235	0x3e6b33be	0.22968957
236	0x3d8bc2d2	0.068242684
237	0xbe6365f2	-0.22206858
238	0xbeafdbe2	-0.34347445
239	0x3dcfb4cd	0.10141907
240	0x3df817d1	0.121139176
241	0x3bbe0626	0.005799073
242	0x3e63083c	0.2217111
243	0xbf5e5aff	-0.868576
244	0x3c2522c1	0.010079087
245	0xbcbd9909	-0.023144262
246	0x3dc16e83	0.094449066
247	0x3d609762	0.05483187
248	0x3e28cc06	0.16484079
249	0xbebf0535	-0.3730866
250	0x3e3d75a0	0.18501902
251	0x3d9fc0bd	0.07800434
252	0x3e801607	0.25016806
253	0x3db29ca0	0.0872128
254	0x3c3ad51c	0.011403348
255	0x3e5ea38f	0.2174208

network.3.bias f4 [64]
0	0xbdeb429c	-0.11487314
1	0x3dae6760	0.08515811
2	0xbd7018aa	-0.05861727
3	0x3d044a3e	0.032297365
4	0xbc41fb28	-0.0118396655
5	0x3ad4909c	0.0016217413
6	0xbd81a532	-0.06330337
7	0x3d07ba9a	0.03313694
8	0xbddb230c	-0.10700044
9	0xbd93d627	-0.07218581
10	0xbe06678f	-0.13125442
11	0x3c523a86	0.012831336
12	0xbe77bacd	-0.24192353
13	0xbda7c6c3	-0.08192208
14	0x3da8f12d	0.08249126
15	0xbd8e174d	-0.06938038
16	0x3dca014b	0.09863528
17	0xbd4d89b9	-0.05018017
18	0x3d8d8a17	0.06911104
19	0xbc441c7e	-0.011969684
20	0xbcee0f82	-0.02906013
21	0x3d3a0025	0.045410294
22	0x3d852efa	0.06503101
23	0xbd0825d0	-0.033239186
24	0xbe0793c7	-0.13239966
25	0x3d7d62ea	0.06186191
26	0xbd5e0621	-0.054205064
27	0xbd20b17d	-0.039231766
28	0xbe0a59d9	-0.13510837
29	0xbdaf8691	-0.085705884
30	0x3d252faf	0.040328678
31	0xbe1a0238	-0.15039909
32	0x3e0be90b	0.13663118
33	0x3e000d67	0.12505113
34	0x3dd5b1ba	0.10434289
35	0xbdd924e9	-0.10602743
36	0x3ca94073	0.020660615
37	0x3ce51cac	0.027967773
38	0xbdb20fb5	-0.08694402
39	0xbc261fe8	-0.010139443
40	0x3d556468	0.052097708
41	0x3c931b8e	0.017957475
42	0xbddbb9ed	-0.10728822
43	0xbe14e956	-0.14542136
44	0xbd3a8c2e	-0.045543842
45	0xbe0e55ed	-0.13899966
46	0xbd91d033	-0.07119789
47	0xbcc63354	-0.024194397
48	0xbe49b9e6	-0.19699821
49	0xbddc1cbe	-0.1074767
50	0xbd2dee60	-0.04246366
51	0x3e180aa9	0.14847817
52	0xbdc45a26	-0.09587507
53	0xbe0f077e	-0.13967702
54	0xbd0efe9b	-0.03491078
55	0xbdc41f5f	-0.09576296
56	0x3c1ad0dc	0.00944921
57	0x3d08877f	0.033332344
58	0xbe264b1b	-0.16239588
59	0xbd6c5510	-0.05769831
60	0x3d16c29d	0.03680669
61	0xbd6a2fa3	-0.057174336
62	0x3d9e720a	0.07736595
63	0xbdd53c7b	-0.10411926

network.4.weight f4 [64]
0	0x3f9ab722	1.2087138
1	0x3f8c6708	1.0968943
2	0x3f9233ca	1.1422055
3	0x3f9b9f89	1.2158061
4	0x3f9a38f1	1.2048627
5	0x3edb1e14	0.42796385
6	0x3f6a100d	0.9143074
7	0x3f71df6f	0.9448156
8	0x3fa20075	1.265639
9	0x3fa3a983	1.2786106
10	0x3fba8035	1.4570376
11	0x3f9c7d11	1.2225667
12	0x3fcae0d1	1.5849859
13	0x3f990302	1.1954043
14	0x3fb85544	1.4401021
15	0x3f891355	1.0709025
16	0x3fb31226	1.3989913
17	0x3ed89588	0.42301583
18	0x3f184e23	0.5949423
19	0x3fa30c97	1.2738217
20	0x3eeff788	0.4686854
21	0x3fb8dc49	1.4442226
22	0x3fb6a0b4	1.4267793
23	0x3ed3e798	0.4138763
24	0x3f4a0c5d	0.78925115
25	0x3fc26dc1	1.5189744
26	0x3fa4853a	1.2853158
27	0x3f807553	1.0035805
28	0x3f82102f	1.0161189
29	0x3ed66e01	0.418808
30	0x3f9f5bf9	1.2449943
31	0x3f637460	0.8884945
32	0x3f84c010	1.0371113
33	0x3fa4aadb	1.2864641
34	0x3f6e1096	0.9299406
35	0x3fb0852c	1.3790641
36	0x3f601f91	0.87548167
37	0x3f5f0a1a	0.8712479
38	0x3f863019	1.0483428
39	0x3f0e63d0	0.5562105
40	0x3ef8d48c	0.4859966
41	0x3f8c23d2	1.0948431
42	0x3f6e7a9a	0.93155825
43	0x3fbc7b45	1.4725119
44	0x3ebef772	0.3729816
45	0x3fb5c324	1.4200177
46	0x3fa45b51	1.2840368
47	0x3fa9b22c	1.3257499
48	0x3facca01	1.3499147
49	0x3f7b29be	0.9811057
50	0x3fa474ed	1.2848183
51	0x3f7b2784	0.9810717
52	0x3ee4a17e	0.4465446
53	0x3ecd6644	0.40117085
54	0x3f8e5dd1	1.112238
55	0x3f9d881f	1.2307166
56	0x3f82f46a	1.0230839
57	0x3f42929e	0.7600497
58	0x3f672b2a	0.9030024
59	0x3f5a9126	0.8537773
60	0x3f6e5e28	0.9311242
61	0x3f656d91	0.8962031
62	0x3f888fd5	1.0668894
63	0x3f8a763a	1.081733

network.4.bias f4 [64]
0	0x3d8b8ac1	0.068135746
1	0x3e7b9451	0.24568297
2	0xbd191721	-0.037375573
3	0x3dbd0108	0.09228712
4	0xbd014dea	-0.031568445
5	0xbf0e7a95	-0.55655795
6	0x3d658084	0.056030765
7	0xbe0d2d9c	-0.1378693
8	0x3e13ef5a	0.14446774
9	0xbddd4732	-0.10804595
10	0x3cfc0420	0.030763686
11	0x3dda057e	0.10645579
12	0x3ced18dd	0.02894252
13	0x3df709ba	0.12062402
14	0x3d5df145	0.05418517
15	0x3e677066	0.2260147
16	0x3e811136	0.25208443
17	0xbf024156	-0.50880945
18	0x3c39377d	0.011304733
19	0xbd5827ba	-0.05277226
20	0xbea2f915	-0.3183066
21	0x3dbd4340	0.092413425
22	0xbdd83652	-0.10557236
23	0xbee26f1b	-0.44225392
24	0x3d2a5eaf	0.041594204
25	0xbdcc5b09	-0.09978301
26	0x3e8fd06f	0.2808871
27	0xbaf4ec27	-0.0018686102
28	0x3c4052a3	0.011738452
29	0xbf116f9b	-0.5681092
30	0x3e158830	0.14602733
31	0xbd644579	-0.055730317
32	0x3b202303	0.002443493
33	0x3e9322fa	0.28737622
34	0x3d6a7c22	0.05724729
35	0x3e4107a2	0.18850568
36	0x3bf7b700	0.007559657
37	0x3d04d8e3	0.0324334
38	0x3b4e12ba	0.0031444267
39	0xbd108e99	-0.03529224
40	0xbebe873d	-0.37212554
41	0x3e6b5ed3	0.22985391
42	0x3d4b0b40	0.049571276
43	0x3d20f63c	0.039297327
44	0xbf10b34c	-0.56523585
45	0xbe42dad8	-0.19028795
46	0x3db235c0	0.08701658
47	0x3bca6aa5	0.006177264
48	0xbd2fa221	-0.042879228
49	0x3d18d5d9	0.037313316
50	0xbd9f120b	-0.07767113
51	0x3e18c638	0.14919364
52	0xbf010ee2	-0.50413334
53	0xbf0a3d10	-0.53999424
54	0x3e048b14	0.12943679
55	0x3d218eeb	0.039442938
56	0x3d661e9c	0.056181535
57	0xbc89fda7	-0.016844584
58	0x3bb86eaa	0.0056284266
59	0xbdb966da	-0.090528205
60	0x3bc54922	0.006020681
61	0xbd9e2da1	-0.07723547
62	0x3e72c6da	0.23708668
63	0xbedccf81	-0.43127063

network.6.weight f4 [64, 64]
0	0xbf1d41d2	-0.6142856
1	0x3e6d5bf3	0.23179607
2	0xbe6c7608	-0.230919
3	0xbf1037ec	-0.5633533
4	0x3ddfaf99	0.109221645
5	0xbe74a616	-0.23891482
6	0x3db7e52f	0.0897926
7	0x3e82887a	0.25494748
8	0xbec0a0c7	-0.37622663
9	0x3d923af8	0.07140154
10	0xbec9004e	-0.39258045
11	0xbf245f52	-0.6420795
12	0xbe047108	-0.12933743
13	0xbcc9bc44	-0.024625905
14	0xbf0cb3f3	-0.5496208
15	0x3e80f969	0.25190285
16	0x3e551ff6	0.20812973
17	0xbe50d88c	-0.20395106
18	0xbe81e76e	-0.2537188
19	0xbefe229a	-0.49635774
20	0xbf2c7712	-0.67369187
21	0xbf3d1271	-0.73856264
22	0xbdf6a620	-0.120434046
23	0xbeb2bdac	-0.34910333
24	0x3e467a4f	0.19382595
25	0xbe2ef4c7	-0.17085563
26	0x3edcf012	0.4315191
27	0x3dfbe04e	0.12298642
28	0xbf3af02f	-0.7302274
29	0xbd6210ca	-0.055191793
30	0xbec9ac58	-0.393893
31	0xbe8fcec0	-0.28087425
32	0x3e071058	0.13189828
33	0xbf3f5d1d	-0.74751455
34	0x3eae6fd7	0.34069702
35	0x3c514eb4	0.012775112
36	0x3e630df0	0.22173285
37	0xbedf3c7e	-0.4360084
38	0xbdadb56b	-0.08481868
39	0xbe8c8187	-0.27442572
40	0xbe5bb4f2	-0.21455744
41	0x3e2679fb	0.1625747
42	0x3bd87e87	0.00660688
43	0xbebbd835	-0.3668839
44	0x3c05d533	0.008168506
45	0xbe0452d9	-0.12922229
46	0xbf8ba119	-1.0908538
47	0x3ec8a70d	0.3918995
48	0xbe91b99b	-0.28461918
49	0xbe452fa3	-0.19256453
50	0xbee7edf5	-0.45298734
51	0xbf3b02ac	-0.7305095
52	0x3d766844	0.06015803
53	0x3dfad405	0.12247471
54	0xbf1aed12	-0.6051799
55	0xbeb15d54	-0.34641516
56	0xbd2d9eef	-0.0423879
57	0x3da3a204	0.079898864
58	0xbe3b2b2a	-0.18278185
59	0xbd8b0d03	-0.06789591
60	0xbdbffa82	-0.093739524
61	0xbe9b22d5	-0.30300012
62	0x3e9eb77d	0.30999365
63	0xbea0e5f3	-0.31425437
64	0xbe192c26	-0.14958248
65	0x3dfe20f8	0.12408632
66	0xbd6a8e1a	-0.057264425
67	0xbd992de0	-0.07479453
68	0x3e27a629	0.16371979
69	0xbd9191a1	-0.07107855
70	0xbe95b638	-0.29240584
71	0xbdea283a	-0.11433454
72	0xbefbd71a	-0.49187547
73	0x3bab8dae	0.0052353954
74	0xbcf54841	-0.02994168
75	0x3ec93ffc	0.3930663
76	0x3cd6db68	0.026227668
77	0xbed136b2	-0.40862042
78	0x3e080cdc	0.13286155
79	0x3dc0aea6	0.094083115
80	0x3c880911	0.016605886
81	0xbe111a0c	-0.14170092
82	0x3c810809	0.015750902
83	0x3e4694b8	0.19392669
84	0x3d2af910	0.04174143
85	0xbba4fea8	-0.00503524
86	0x3d8cb2be	0.0687003
87	0xbd828d7b	-0.063746415
88	0xbeb4995a	-0.35273248
89	0x3d8d81a5	0.06909493
90	0x3ebd862b	0.37016425
91	0xbea73f52	-0.32665497
92	0xbe32803c	-0.1743173
93	0xbd38c4d1	-0.045109574
94	0x3ca3fcd2	0.020018015
95	0xbe0a457b	-0.13503067
96	0x3e052b3e	0.13004777
97	0x3e408aa3	0.18802886
98	0xbd66dc59	-0.056362484
99	0xbdf57b30	-0.11986387
100	0xbef59568	-0.4796555
101	0xbc10975f	-0.008825152
102	0xbd68b5a8	-0.056813866
103	0xbe895969	-0.26826027
104	0x3d27ed42	0.04099775
105	0x3e4f765c	0.20259994
106	0x3cf08381	0.029359581
107	0x3dfaa010	0.12237561
108	0xbd8e94cc	-0.069619745
109	0xbd2c915d	-0.042130817
110	0xbe100a5e	-0.14066455
111	0xbf0b6d5f	-0.5446376
112	0xbed59a51	-0.41719297
113	0x3e06c995	0.13162835
114	0x3db9eaf8	0.0907802
115	0xbcc36c45	-0.023855338
116	0xbc8c7f19	-0.017150449
117	0x39f6c4cf	0.0004706741
118	0x3e8c566f	0.27409694
119	0xbd4548e3	-0.048165213
120	0x3e29c82c	0.16580266
121	0x3c1de39a	0.009636784
122	0x3e420776	0.18948159
123	0xbec8b353	-0.39199314
124	0xbdb4dd86	-0.08831315
125	0xbeed0eb1	-0.4630027
126	0x3de8af99	0.113616176
127	0xbe10821a	-0.1411213
128	0x3ea20e93	0.31651744
129	0x3e0cc506	0.13747033
130	0xbd52c34e	-0.05145579
131	0x3b8bcc33	0.004266286
132	0x3e86b7f6	0.26312226
133	0x3ccb614b	0.024826666
134	0x3d3dccf3	0.046338033
135	0xbee6841c	-0.45022666
136	0x3dedc442	0.11609699
137	0xbedffce6	-0.43747634
138	0xbde5fd79	-0.11229987
139	0x3e82b1c1	0.2552624
140	0x3e1b61d1	0.15174033
141	0xbdd28096	-0.10278432
142	0x3e4ccea6	0.20000705
143	0x3ea4bd42	0.32175642
144	0x3ec9e8df	0.3943548
145	0xbded6915	-0.115923084
146	0xbd84a15d	-0.0647609
147	0x3e92f25d	0.28700534
148	0x3e95ad9a	0.2923401
149	0x3be56833	0.007000947
150	0x3cf4f5ee	0.029902425
151	0x3d19a1ff	0.037508007
152	0xbe577aba	-0.2104291
153	0xbde5a083	-0.11212256
154	0x3d6c2d1e	0.057660215
155	0x3dc67ff7	0.09692376
156	0x3e09b31e	0.13447234
157	0x3d851ca8	0.06499606
158	0x3cf2249c	0.029558472
159	0xbe0ec8c7	-0.13943778
160	0xbe45bed3	-0.19311075
161	0x3e3ddae0	0.18540525
162	0x3e41a5d6	0.18910918
163	0x3eb28a74	0.34871256
164	0xbe534be8	-0.20634425
165	0xbe6d09b8	-0.23148239
166	0x3d7a251a	0.06107054
167	0x3d77a12d	0.060456444
168	0xbe9c249b	-0.30496678
169	0x3e0f4266	0.13990173
170	0x3e80b422	0.2513743
171	0xbe08197f	-0.13290976
172	0x3d0c2595	0.03421553
173	0xbf69ac9d	-0.9127901
174	0x3e434223	0.19068198
175	0xbe8f9c49	-0.28048924
176	0xbc869a18	-0.0164309
177	0xbdf179d2	-0.117908135
178	0x3e230f50	0.1592381
179	0xbb727a9b	-0.0036999348
180	0x3cc6b3c9	0.02425565
181	0x3ccc9eac	0.024978004
182	0x3e69969b	0.22811358
183	0xbe5a5d70	-0.21324706
184	0x3e44a2e5	0.19202764
185	0xbe18d3d6	-0.14924559
186	0xbd9bf5f1	-0.07615269
187	0xbd8b7ffd	-0.06811521
188	0x3e72f012	0.23724392
189	0x3d86c0c8	0.06579739
190	0x3e62fc74	0.22166616
191	0xbf6d42b0	-0.9267988
192	0x3d85b474	0.06528559
193	0x3ca6f3c5	0.02037991
194	0xbd3a6193	-0.04550321
195	0x3d0b154f	0.03395587
196	0xbd9bbc14	-0.076042324
197	0xbdbee76f	-0.09321486
198	0xbd89bd33	-0.0672554
199	0x3e37b151	0.17938735
200	0x3c9b4e48	0.018958226
201	0x3e6790ae	0.22613785
202	0xbea118c2	-0.314642
203	0x3b4ba3b0	0.0031072907
204	0xbeb018dc	-0.34393966
205	0xbeab0a0b	-0.334061
206	0xbc70be77	-0.014693848
207	0x3c1bf593	0.009518999
208	0x3e1007bb	0.14065449
209	0xbcb836e7	-0.022487117
210	0xbe9a0d4f	-0.3008828
211	0x3dc764e4	0.0973604
212	0x3ee3ed55	0.44517007
213	0xbe5f2a12	-0.21793392
214	0x3eb4db0e	0.35323375
215	0x3e248e52	0.16069916
216	0xbaf99af9	-0.0019043378
217	0x3e10f04d	0.14154167
218	0x3e1f989f	0.15585564
219	0xbd8238ab	-0.06358465
220	0x3d2cf434	0.042225078
221	0xbc6c6303	-0.014427903
222	0xbe19066c	-0.14943856
223	0x3e1971c2	0.14984801
224	0xbe0bba8d	-0.13645382
225	0x3ddd2137	0.10797351
226	0xbd81028d	-0.06299315
227	0xbf58be37	-0.84665245
228	0x3cc05e10	0.023482352
229	0x3e8ccfaf	0.275022
230	0xbf351b3e	-0.70744693
231	0xbd071f65	-0.032988925
232	0x3ce0cd81	0.027441742
233	0xbdbeff25	-0.09326009
234	0xbe8247ba	-0.25445348
235	0xbe90642b	-0.28201422
236	0xbe355eba	-0.17711917
237	0x3f224683	0.6338884
238	0x3e3302ed	0.17481585
239	0xbe9941d5	-0.29933038
240	0xbe4d5765	-0.2005287
241	0xbef22de1	-0.47300628
242	0x3e9aa0f2	0.30200917
243	0x3da33e73	0.079708956
244	0x3d9178b6	0.07103102
245	0x3c5cda10	0.0134797245
246	0x3de1094c	0.10988101
247	0xbe94cbe0	-0.29061794
248	0xbe09070e	-0.13381597
249	0xbcd28101	-0.02569628
250	0xbed3d092	-0.41370064
251	0xbe8755ae	-0.26432556
252	0xbe6f476c	-0.23367089
253	0x3e98c6f6	0.29839295
254	0xbdba10fc	-0.09085271
255	0x3ebee78b	0.37286028

network.6.bias f4 [64]
0	0xbe8c3484	-0.27383816
1	0xbddf87b1	-0.10914553
2	0x3dd7fbb9	0.10546059
3	0xbd079079	-0.033096764
4	0xbc8117d0	-0.015758425
5	0xbd93eb0c	-0.07222566
6	0x3e17300e	0.14764425
7	0xbe9cce67	-0.30626222
8	0x3d912fc1	0.070891865
9	0x3d5a28a7	0.053261425
10	0x3dec46ff	0.11536979
11	0xbdd4cc0c	-0.10390481
12	0xbe140f63	-0.14458995
13	0x3e0be502	0.13661578
14	0xbdf437a3	-0.11924674
15	0xbe45aae6	-0.19303474
16	0x3d25c92e	0.040475063
17	0xbeac33b2	-0.3363319
18	0xbe0a9ccd	-0.13536377
19	0xbb8b6251	-0.0042536636
20	0xbdc0adf2	-0.094081774
21	0x3da21f45	0.079161204
22	0xbebccdb5	-0.36875692
23	0x3d81a2f9	0.06329913
24	0xbee80e0c	-0.45323217
25	0x3dad3bc3	0.08458664
26	0x3dc2a720	0.09504533
27	0xbdd0fdd2	-0.102046624
28	0x3e77b616	0.24190554
29	0xbd1ac77c	-0.0377879
30	0xbda3a056	-0.07989566
31	0xbd87a72a	-0.06623681
32	0xbc9db249	-0.019250052
33	0xbe92b85d	-0.28656283
34	0xbd464401	-0.048404697
35	0xbe90e91a	-0.28302842
36	0x3d17cd68	0.037061125
37	0xbdbf28e2	-0.0933397
38	0xbd875c7b	-0.06609436
39	0xbe69ae2d	-0.22820349
40	0xbdae548b	-0.08512219
41	0x3dc2b81b	0.095077716
42	0x3d98a7d8	0.07453889
43	0x3ca2661e	0.019824084
44	0x3d8538b7	0.06504958
45	0xbe9c8a9f	-0.3057451
46	0x3e428c78	0.18998897
47	0x3e6f8b2f	0.23392938
48	0x3d8757cb	0.06608542
49	0x3dbc1349	0.09183366
50	0x3e02f960	0.12790442
51	0xbd77986a	-0.060448088
52	0x3d6e3b87	0.05816224
53	0xbdb6ac06	-0.089195296
54	0x3d84d188	0.064852774
55	0xbdc3c620	-0.09559274
56	0xbe0519c5	-0.12998112
57	0x3dcf8aec	0.10133919
58	0xbeb015db	-0.34391674
59	0xbe07175f	-0.13192509
60	0x3e12d927	0.1434065
61	0xbebe6a1e	-0.37190336
62	0xbd996ae5	-0.07491092
63	0xbdc30d63	-0.09524038

network.7.weight f4 [64]
0	0x3f8f93d2	1.1216986
1	0x3f173e6f	0.5907964
2	0x3e9e20c2	0.30884367
3	0x3f40e68d	0.7535179
4	0x3fbb5f8f	1.4638537
5	0x3f0df3bd	0.5545004
6	0x3f1a7007	0.6032719
7	0x3f834ede	1.0258443
8	0x3f4eda96	0.80802286
9	0x3f050d8b	0.5197379
10	0x3f8b941b	1.0904573
11	0x3ea77170	0.32703733
12	0x3f4b6ce4	0.7946303
13	0x3f662024	0.8989279
14	0x3f243a6a	0.6415163
15	0x3f358a20	0.7091389
16	0x3f51ac0c	0.8190315
17	0x3ee70d7b	0.45127472
18	0x3f4a0db0	0.78927135
19	0x3e9b7753	0.30364475
20	0x3f3ee736	0.7457155
21	0x3f22a338	0.635303
22	0x3f71abb2	0.9440261
23	0x3f46cfbc	0.7766073
24	0x3ecd277b	0.40069184
25	0x3f738a2e	0.9513272
26	0x3f37c988	0.7179189
27	0x3f30dea5	0.6908973
28	0x3eab3ddb	0.3344563
29	0x3f8781c7	1.058648
30	0x3f451bcc	0.7699554
31	0x3ed3d3cc	0.41372526
32	0x3f82a916	1.0207851
33	0x3f59532f	0.84892553
34	0x3f3e50f7	0.7434229
35	0x3ed3de40	0.413805
36	0x3f340e93	0.7033474
37	0x3f646121	0.89210707
38	0x3f59113d	0.8479193
39	0x3f26af36	0.651111
40	0x3f3439f9	0.7040096
41	0x3f6b0005	0.91796905
42	0x3f1f1058	0.62134314
43	0x3f2f29ba	0.68423045
44	0x3f0d2520	0.55134773
45	0x3f041052	0.515874
46	0x3ea1777f	0.3153648
47	0x3e90d803	0.28289804
48	0x3f351585	0.7073596
49	0x3edc12ee	0.42983192
50	0x3eaf02aa	0.3418172
51	0x3f4bca2c	0.79605365
52	0x3f1751d0	0.5910921
53	0x3ee2d32c	0.44301736
54	0x3ee1e61f	0.4412088
55	0x3f586b64	0.84538865
56	0x3f01fdb5	0.5077775
57	0x3f31eed1	0.6950503
58	0x3ea443f4	0.32083094
59	0x3f95e17f	1.1709441
60	0x3ec0f6fc	0.37688434
61	0x3ee90e5c	0.45518768
62	0x3f7b3c48	0.98138857
63	0x3f60e47a	0.8784863

network.7.bias f4 [64]
0	0xbd90ca8e	-0.07069884
1	0xbe52587b	-0.20541565
2	0xbec44585	-0.3833429
3	0x3bcb0b04	0.0061963815
4	0x3c2ccd9a	0.010547066
5	0xbea67a9c	-0.3251542
6	0xbd3395c7	-0.04384401
7	0xbeb7af43	-0.35875902
8	0xbe0ac54c	-0.13551825
9	0xbeb3c48d	-0.35110894
10	0xbd808e2d	-0.06277118
11	0xbeb8258a	-0.3596614
12	0xbe53b715	-0.20675309
13	0xbe24c49a	-0.16090623
14	0xbd0086fb	-0.031378727
15	0xbda6ba20	-0.08140969
16	0x3d82ab25	0.063802995
17	0xbed1e79a	-0.4099701
18	0xbe0d93b9	-0.13825883
19	0xbecd3ae3	-0.4008399
20	0xbe457211	-0.19281794
21	0xbdb3a705	-0.08772091
22	0xbe74bc55	-0.23899968
23	0xbde063c8	-0.10956532
24	0xbef05c0e	-0.46945232
25	0xbddfbc4d	-0.109245874
26	0xbdb0a810	-0.086258054
27	0xbdaaec23	-0.08345821
28	0xbf174e8e	-0.5910424
29	0xbd8bd0cc	-0.06826934
30	0xbe89d5e2	-0.26920992
31	0xbe845caa	-0.25851947
32	0xbe69b7e3	-0.22824053
33	0xbd9fc468	-0.078011334
34	0xbe363a64	-0.17795712
35	0xbf182f5a	-0.5944725
36	0xbdb81190	-0.08987725
37	0xbdb16ebb	-0.08663698
38	0xbe2c125f	-0.16803883
39	0xbdd5ab22	-0.104330316
40	0xbe4b708c	-0.19867152
41	0xbe19641c	-0.14979595
42	0xbe99f7ed	-0.30071965
43	0xbebd8607	-0.37016317
44	0xbe87b43c	-0.26504695
45	0xbebff8fa	-0.37494642
46	0xbee90cba	-0.45517522
47	0xbf23818d	-0.63869554
48	0xbe5194fe	-0.20466992
49	0xbf071a64	-0.52774644
50	0xbf00cffd	-0.50317365
51	0x3c899d99	0.016798781
52	0xbe828cdb	-0.2549809
53	0xbeae44da	-0.34036905
54	0xbed330f7	-0.41248295
55	0xbdfaeb22	-0.12251879
56	0xbead1e31	-0.33812097
57	0xbe1b5995	-0.15170892
58	0xbee7820f	-0.45216414
59	0x3a27cd08	0.00064010965
60	0xbeb0eb4f	-0.34554526
61	0xbee7ab76	-0.45248002
62	0xbd0e3e6c	-0.0347275
63	0xbde31be6	-0.110893056

mu.weight f4 [10, 64]
0	0xbd7abc0e	-0.0612145
1	0x3f1def64	0.61693406
2	0xbda026e7	-0.0781992
3	0xbd5e9621	-0.054342393
4	0x3d9519d2	0.072803155
5	0x3e100fbc	0.14068502
6	0x3d0ce2c3	0.034395944
7	0xbf2061b6	-0.62649095
8	0xbcc28390	-0.023744375
9	0x3e3b340c	0.18281573
10	0x3e23d57f	0.15999411
11	0xbda1db9e	-0.07903217
12	0xbe1878b5	-0.14889796
13	0xbcba37e3	-0.022731727
14	0x3d8a6b40	0.067587376
15	0x3e40420e	0.18775198
16	0xbd946696	-0.07246129
17	0x3d92bd30	0.07164991
18	0x3ea74260	0.32667828
19	0xbde27000	-0.110565186
20	0xbdf7d7ed	-0.121017314
21	0x3c95106f	0.018196313
22	0xbf11656e	-0.56795394
23	0x3e9cdbdc	0.3063649
24	0xbbc2a1f8	-0.0059397183
25	0xbeaa3548	-0.33243775
26	0x3e233066	0.15936431
27	0xbdf99a64	-0.12187651
28	0xbc800486	-0.015627157
29	0x3d8972a0	0.06711316
30	0x3e8906a3	0.26762876
31	0xbe0a4548	-0.13502991
32	0x3c101a48	0.008795328
33	0x3e24343d	0.16035552
34	0xbe32cf53	-0.174619
35	0x3df312fc	0.11868855
36	0xbe223630	-0.15840983
37	0x3e4ebeac	0.20189923
38	0x3e5742ea	0.2102162
39	0xbcbf2b6a	-0.023336131
40	0xbe4a6558	-0.19765222
41	0xbf13fbe1	-0.5780621
42	0xbe88d134	-0.2672211
43	0xbe78e706	-0.24306878
44	0x3d812525	0.06305913
45	0xbcbd85e5	-0.023135135
46	0xbcd57de7	-0.026061011
47	0xbc328c8f	-0.01089777
48	0x3e6253d4	0.2210229
49	0x3b7aa4b5	0.0038245146
50	0xbb7bb33b	-0.003840639
51	0x3dd05156	0.101717636
52	0x3d722d19	0.05912504
53	0x3e0555f6	0.13021073
54	0x3d069819	0.032859895
55	0xbe018a7e	-0.12650487
56	0xbce25b6d	-0.027631486
57	0x3eddb04d	0.4329857
58	0x3e400ba6	0.18754444
59	0xbe14f8d6	-0.14548048
60	0x3c724ada	0.014788354
61	0x3da2cdf3	0.07949438
62	0xbef7af98	-0.48376155
63	0x3cd4bf34	0.025970079
64	0xbf65991e	-0.89686763
65	0xbd109ff4	-0.035308793
66	0xbd528f4b	-0.051406186
67	0x3e45c494	0.1931327
68	0xbd46ad22	-0.048504956
69	0xbe8dd915	-0.27704683
70	0xbdec8054	-0.11547914
71	0xbe7a136e	-0.24421474
72	0x3c9a6615	0.018847505
73	0xbaa2ce82	-0.0012421163
74	0xbdfbffb6	-0.12304632
75	0x3c1e9fd2	0.009681659
76	0xbe04398d	-0.12912579
77	0xbd547157	-0.0518659
78	0x3e6ffc27	0.23436032
79	0xbe0eb572	-0.13936403
80	0x3de03cdd	0.10949109
81	0xbe553e4b	-0.20824544
82	0x3c673e41	0.014113964
83	0xbe36b402	-0.17842105
84	0x3c763c6b	0.015029053
85	0x3ea6af89	0.32555798
86	0xbf09e80d	-0.53869706
87	0x3e317df6	0.17333207
88	0x3d2a1875	0.04152723
89	0x3cc8beb6	0.024505
90	0xbd425dfd	-0.047452915
91	0xbe00f782	-0.12594417
92	0x3d21dbb1	0.039516155
93	0xbd9af0df	-0.07565474
94	0x3eaf8f96	0.34289235
95	0xbe1db935	-0.15402682
96	0x3dc8b49b	0.09800073
97	0xbe963ed8	-0.2934482
98	0xbe9fadac	-0.3118719
99	0xbbedba7c	-0.0072548967
100	0xbd1d5147	-0.03840759
101	0x3cd21921	0.025646748
102	0xbe5503be	-0.20802209
103	0x3dfbd76a	0.12296946
104	0xbd15ece2	-0.036602862
105	0xbe70ff62	-0.23534921
106	0x3e44442a	0.19166628
107	0xbed83542	-0.42228132
108	0x3bccbed9	0.0062483368
109	0x3d7f383a	0.06230948
110	0x3ca87fcf	0.020568756
111	0xbcfc3955	-0.030789057
112	0x3e286756	0.1644567
113	0xbea575f0	-0.32316542
114	0xbce8c1af	-0.028412668
115	0x3d992ca6	0.07479219
116	0x3c87dfed	0.016586268
117	0x3e193c3b	0.14964382
118	0xbc558bbb	-0.013033803
119	0xbe6ea920	-0.23306704
120	0xbe3cc4f7	-0.18434511
121	0xbe4a37b4	-0.19747812
122	0x3e2cc556	0.16872153
123	0x3f1d0766	0.61339414
124	0xbcbbbbe6	-0.022916745
125	0x3ca36437	0.019945247
126	0xbd3a0fca	-0.045425214
127	0x3fcd377e	1.603256
128	0x3dab66fa	0.083692506
129	0x3e33f5da	0.17574254
130	0x3d361c13	0.044460367
131	0x3b72bb4f	0.0037037914
132	0x3eb74bca	0.3580001
133	0xbeadb929	-0.33930328
134	0xbdf2d194	-0.1185638
135	0x405ec7bb	3.4809406
136	0x3e190046	0.1494151
137	0xbd989728	-0.07450706
138	0x3d6c8458	0.0577434
139	0xbbc85234	-0.006113315
140	0xbbf0a76f	-0.0073441784
141	0xbe075820	-0.13217211
142	0x3dcdb4e9	0.100442715
143	0x41820377	16.251692
144	0x3eb4ab91	0.35287145
145	0x4029728e	2.6476169
146	0x3d9f00c9	0.07763822
147	0xbda1ebe4	-0.07906321
148	0xbc89b63f	-0.016810535
149	0x3e7f05e9	0.24904598
150	0x408dfa4e	4.436805
151	0xbda7f1c2	-0.082004085
152	0x3e196727	0.14980756
153	0xbcbb8ce9	-0.02289434
154	0x3ed828ec	0.4221872
155	0xbd2e2613	-0.04251678
156	0x3dc8a936	0.097978994
157	0xbe376b81	-0.17912103
158	0x3e334b00	0.17509079
159	0x3d770e13	0.060316157
160	0x3a86a40b	0.0010272277
161	0x40d82200	6.7541504
162	0xbe9f3fee	-0.31103462
163	0x3c1cb761	0.009565205
164	0x3e5303d8	0.20606935
165	0xbf00c16d	-0.50295144
166	0x3e43c0ee	0.19116566
167	0x3c10851a	0.008820796
168	0x3ce06fd5	0.027397076
169	0xbe40b1d0	-0.1881783
170	0xbd54ba9e	-0.051935785
171	0x3ed61ab0	0.41817236
172	0x3e06422e	0.13111183
173	0x3fa93765	1.322003
174	0x3d7ca6a2	0.06168235
175	0x3d50b74b	0.05095605
176	0x3d2c94aa	0.042133965
177	0xbe6e1d7c	-0.23253435
178	0x3d1025d6	0.035192333
179	0x3efd3c87	0.4946024
180	0x3ea9df5d	0.33178225
181	0xbd83ca46	-0.06435065
182	0x3c8dc31a	0.017304946
183	0x405a9a6f	3.4156759
184	0xbe03cc31	-0.12870862
185	0xbdc72aa6	-0.097249314
186	0x3daf342b	0.08554872
187	0xbc69fd26	-0.014281547
188	0x3d997149	0.074923106
189	0x3f995a72	1.1980727
190	0xbdb1bdab	-0.086787544
191	0xbe2239e5	-0.15842398
192	0xb908e542	-0.00013055376
193	0x3da3010e	0.079591855
194	0xba30cf18	-0.00067447266
195	0xbc0f78c4	-0.00875682
196	0xbf397229	-0.7243982
197	0xb9a20c01	-0.00030907991
198	0xbd86b2f9	-0.06577105
199	0xbe41c7ba	-0.18923846
200	0x3e01c450	0.12672544
201	0x3d57fe04	0.052732483
202	0xbe22574e	-0.15853617
203	0xbca8dd6a	-0.020613391
204	0x3e3046b8	0.17214477
205	0x3d92cdcb	0.07168158
206	0x3de9a068	0.11407548
207	0xbea629ce	-0.3245377
208	0x3d9e1a39	0.07719845
209	0x3e0f5383	0.13996701
210	0xbf38d12e	-0.7219418
211	0x3d52f865	0.05150642
212	0xbe1ff09a	-0.15619126
213	0xbccc426e	-0.02493402
214	0xbd91ee1f	-0.07125496
215	0xbce356bd	-0.027751321
216	0xbb68ffc7	-0.0035552846
217	0xbeae4185	-0.34034362
218	0xbd31b510	-0.043385565
219	0x3c920e6c	0.017829143
220	0x3c8b1890	0.016979486
221	0x3e2d16cb	0.16903226
222	0x3e0d7fcf	0.13818286
223	0x3e162468	0.14662325
224	0xbcfa989a	-0.030590344
225	0xbe381617	-0.17977177
226	0x3e1a3f26	0.15063152
227	0x3d2578b7	0.040398326
228	0xbd0d630b	-0.034518283
229	0xbeb7e8dc	-0.35919845
230	0xbd2a5dca	-0.04159335
231	0xbd5870b8	-0.052841872
232	0x3ea5901f	0.32336518
233	0xbec371a8	-0.3817265
234	0xbf475f37	-0.7787966
235	0x3d284648	0.04108265
236	0xbbbd5d6b	-0.0057789586
237	0xbd73ee7f	-0.05955362
238	0x3bfc4700	0.0076988935
239	0x3cb7d648	0.022441044
240	0x3e294d6e	0.16533443
241	0x3d9b20d8	0.07574624
242	0x3adec508	0.0016995976
243	0xbe29d626	-0.16585597
244	0x3d85fc00	0.06542206
245	0xbd1d3b8e	-0.038386874
246	0x3b981589	0.004641239
247	0x3e5438d0	0.20724797
248	0x3e1afa79	0.1513461
249	0xbdd81a2b	-0.10551866
250	0xbc7dcdf6	-0.015490999
251	0xbd92533b	-0.07144781
252	0xbd201bc9	-0.039088998
253	0x3c4e8354	0.012604553
254	0x3dd621bd	0.10455654
255	0xbdf48fd4	-0.119414955

mu.bias f4 [10]
0	0x3dda2a5c	0.10652611
1	0x3d85fae4	0.06541994
2	0x3d547fbf	0.05187964
3	0x3e0f21c5	0.13977726
4	0x3db4ee00	0.088344574
5	0xbe805ebd	-0.2507228
6	0x3d0baf77	0.034102883
7	0xbbf21e80	-0.00738889
8	0x3e15268a	0.14565483
9	0xbd69def6	-0.057097398
