models/critic_100000.pth (torch, 29135 bytes, 9 tensors)

fc1.weight f4 [64, 20]
0	0x3dea5640	0.11442232
1	0xbe59eefa	-0.21282569
2	0x3b4ab5c5	0.0030931097
3	0x3e1cf53a	0.15327922
4	0x3dd3524c	0.10318431
5	0xbd880003	-0.06640627
6	0x3ca97831	0.020687195
7	0xbe3ee263	-0.18641047
8	0xbd777f8b	-0.06042437
9	0x3dc01750	0.093794465
10	0xbe349607	-0.17635356
11	0x3df22d92	0.11825098
12	0xbd2ca31a	-0.042147733
13	0xbe54cca4	-0.20781189
14	0x3d7ddee5	0.061980147
15	0xbe1aedbb	-0.1512975
16	0x3d73c6b3	0.059515666
17	0xbd24237d	-0.040072907
18	0xbd1a0496	-0.03760203
19	0xbe0e0b1d	-0.13871427
20	0x3dc03906	0.09385876
21	0x3dc9c1b4	0.09851399
22	0xbdf622bb	-0.12018343
23	0x3d6a0c4f	0.057140645
24	0x3dbc192a	0.09184487
25	0xbe145635	-0.1448601
26	0x3e4a3e85	0.19750412
27	0x3d872643	0.06599095
28	0xbdda8b02	-0.10671045
29	0x3c6eb74a	0.014570067
30	0x3dd6e52b	0.10492929
31	0xbd9e3615	-0.07725159
32	0xbd403b86	-0.046931766
33	0x3cc7d94a	0.024395604
34	0xbe0f42d0	-0.1399033
35	0xbe3e9846	-0.18612775
36	0x3dd49435	0.10379831
37	0x3e54cdb0	0.20781589
38	0xbcde23ae	-0.027116623
39	0x3d8bc087	0.06823831
40	0x3e23565a	0.1595091
41	0xbd8a8672	-0.06763925
42	0xbdef4e61	-0.116848715
43	0x3e461437	0.19343649
44	0xbe0a7ecf	-0.13524936
45	0xbc86a443	-0.016435748
46	0xbe45eb16	-0.1932796
47	0xbe1afe47	-0.15136062
48	0xbe128c3b	-0.14311306
49	0xbdcf3b82	-0.10118772
50	0x3dca0b9f	0.09865498
51	0x3e2e283b	0.17007534
52	0xbda8bb30	-0.08238828
53	0x3e29c780	0.1658001
54	0x3e21366e	0.1574342
55	0x3e4c32cf	0.19941257
56	0x3de5e2b6	0.11224882
57	0x3e4a6ff5	0.1976927
58	0xbe070562	-0.13185647
59	0xbdec82b6	-0.11548369
60	0x3e229c9b	0.15880053
61	0xbd9fc8c8	-0.07801968
62	0xbd154c7f	-0.036449905
63	0x3e5340b0	0.20630145
64	0x3db022d7	0.08600395
65	0x3a1e402f	0.0006036786
66	0xbe178e2b	-0.14800327
67	0xbd1994de	-0.037495486
68	0x3db2d1e0	0.08731437
69	0xbe4cdb92	-0.20005634
70	0xbc3e7622	-0.011624845
71	0xbe0ef2d8	-0.13959825
72	0xbc0638a6	-0.008192217
73	0xbdd4ad52	-0.10384621
74	0xbdff4f5f	-0.12466311
75	0xbe35f961	-0.17770912
76	0x3d4ccea7	0.050001767
77	0x3d345bfb	0.044033032
78	0x3d8d36e0	0.06895232
79	0x3e0ae154	0.13562518
80	0xbe0ec779	-0.1394328
81	0x3e56d5b5	0.2097996
82	0xbe3b771b	-0.18307154
83	0xbd1d3423	-0.0383798
84	0x3d5e3af7	0.054255452
85	0xbe00ac8a	-0.12565818
86	0xbdceb783	-0.10093596
87	0x3e23fad6	0.16013655
88	0xbe3b8110	-0.18310952
89	0x3d072da4	0.03300251
90	0x3e58499d	0.21121831
91	0xbd882088	-0.0664683
92	0x3e045e23	0.12926535
93	0x3dc3b325	0.095556535
94	0xbdc8efb6	-0.09811346
95	0x3e11a6a3	0.14223723
96	0x3e6328c3	0.22183518
97	0x3d9d9f70	0.07696426
98	0xbd187642	-0.037222154
99	0xbc842e40	-0.016135335
100	0x3e268a4a	0.1626369
101	0xbde3f08e	-0.111298665
102	0x3decfdbd	0.11571834
103	0xbe02cb51	-0.12772872
104	0x3ddd41ef	0.108035915
105	0xbd682a12	-0.056680746
106	0x3d1921b6	0.037385665
107	0xbdaa66d6	-0.08320396
108	0xbca855ab	-0.020548662
109	0xbe1606b4	-0.14650995
110	0xbe372797	-0.17886196
111	0x3c981e05	0.018569002
112	0x3dbe24cf	0.092843644
113	0xbd9c8fb0	-0.07644594
114	0xbc32467b	-0.010881062
115	0x3e09b8bc	0.13449377
116	0xbdb7e0ef	-0.089784496
117	0x3d92ab9f	0.071616404
118	0xbe2f7d04	-0.17137533
119	0x3e2f7421	0.17134143
120	0xbdbcd196	-0.09219663
121	0x3ccfc3ac	0.025361858
122	0xbe0021e1	-0.12512924
123	0x3da114ac	0.07865271
124	0x3e1edc45	0.15513714
125	0x3e34ee31	0.17668988
126	0xbe16ff6c	-0.14745873
127	0xbd7c61d0	-0.06161672
128	0x3db2d2b3	0.08731594
129	0xbc68bb5c	-0.014204826
130	0xbd41f839	-0.047355864
131	0x3cbc8690	0.023013383
132	0xbdd661b7	-0.104678564
133	0x3dfe4145	0.12414793
134	0x3d6a9128	0.057267338
135	0xbdec0c9b	-0.11525842
136	0x3dc4a948	0.096026
137	0xbda0dc00	-0.07854462
138	0x3d118939	0.035531256
139	0xbe127e69	-0.14306034
140	0x3dd748d0	0.10511935
141	0x3d499551	0.049214665
142	0x3dce3d45	0.1007028
143	0x3dc041f0	0.093875766
144	0x3e0c4dd9	0.13701572
145	0x3e544cae	0.20732376
146	0x3d967ddf	0.07348227
147	0x3dfca9ff	0.12337112
148	0xbe5c73a1	-0.21528484
149	0xbdcb29c1	-0.09920073
150	0xbda7092a	-0.08156045
151	0xbdcb8f6d	-0.09939466
152	0xbdd3ca23	-0.10341289
153	0x3e1fec91	0.15617587
154	0xbd2f7801	-0.042839054
155	0x3d9dcfa0	0.07705617
156	0x3d920948	0.071306765
157	0x3da9fbe5	0.08299998
158	0xbe235b54	-0.15952808
159	0x3cecc307	0.02890159
160	0xbdf4e7af	-0.11958253
161	0x3c9ce432	0.01915178
162	0x3d6f5ad5	0.058436234
163	0xbd8efa16	-0.06981294
164	0x3e4c589b	0.19955675
165	0xbe53d24e	-0.20685694
166	0xbe00c97b	-0.12576859
167	0xbe63b760	-0.22237921
168	0x3e0ee3a0	0.1395402
169	0x3e4b571a	0.19857445
170	0x3dca1a85	0.098683394
171	0x3d297b76	0.041377507
172	0xbda9bcbd	-0.08287952
173	0x3cfe821a	0.031067897
174	0x3e5162a1	0.2044778
175	0x3b152870	0.0022759698
176	0x3e04c8ee	0.12967274
177	0x3e44ae23	0.19207053
178	0xbd8beffd	-0.068328835
179	0xbe3da1d1	-0.1851876
180	0x3dae8beb	0.08522781
181	0xbce8226a	-0.028336722
182	0x3d11a880	0.035561085
183	0x3e64e118	0.22351491
184	0xbd280d9d	-0.041028608
185	0xbe14cff9	-0.1453246
186	0x3d3878c0	0.04503703
187	0x3e3efa31	0.18650128
188	0xbe49f8cb	-0.19723813
189	0x3afe99ce	0.00194245
190	0xbd44d2cd	-0.048052598
191	0xbe40f9c7	-0.18845282
192	0xbdab9cf3	-0.08379545
193	0x3e2d6c3a	0.16935816
194	0xbd8a3dbf	-0.067500584
195	0x3e01fd6a	0.12694326
196	0x3d0d6eb8	0.034529418
197	0xbdff8049	-0.1247564
198	0xbe01475f	-0.12624882
199	0xbd1ac5c1	-0.03778625
200	0x3e1970d3	0.14984445
201	0xbdbe216a	-0.09283717
202	0xbd9a9ccb	-0.07549437
203	0xbdb1452b	-0.08655771
204	0x3c868043	0.016418582
205	0xbddb340a	-0.10703285
206	0xbe0b2fd4	-0.13592464
207	0x3d3d24b6	0.04617759
208	0xbd9468d9	-0.072465606
209	0xbe060443	-0.13087563
210	0x3d6068c0	0.054787397
211	0xbe13e731	-0.14443661
212	0x3daf96e4	0.08573702
213	0xbe40237e	-0.18763539
214	0x3dfaf703	0.12254145
215	0xbc6ef75a	-0.01458534
216	0x3d0a56a6	0.03377404
217	0xbcb06a7b	-0.021535149
218	0x3d820c77	0.06350034
219	0xbbf15a95	-0.0073655345
220	0xbe28234b	-0.16419713
221	0x3d1f5229	0.038896713
222	0x3da02a4e	0.07820569
223	0x3dcb8d78	0.099390924
224	0xbd525647	-0.05135181
225	0x3e0edb3f	0.13950823
226	0x3dce33b5	0.10068456
227	0xbe5d0a00	-0.21585846
228	0x3e3fd309	0.18732847
229	0xbc2c2c7a	-0.010508651
230	0xbcdd09e1	-0.02698225
231	0x3e030fb8	0.12798965
232	0x3cd27ca7	0.025694204
233	0xbdb3574f	-0.08756887
234	0x3dbe86f2	0.093030825
235	0xbd27aa06	-0.04093363
236	0x3da9380b	0.082626425
237	0xbd38f7f4	-0.04515834
238	0xbe56e08b	-0.20984094
239	0xbe2f98e2	-0.17148164
240	0xbdc19d73	-0.09453859
241	0xbe50bfef	-0.20385717
242	0xbd6a652a	-0.057225384
243	0xbd0d7aa0	-0.034540772
244	0xbd015b5b	-0.031581264
245	0xbe096f96	-0.13421473
246	0x3e63f1ac	0.22260159
247	0x3c848c1c	0.01618009
248	0xbce4aab2	-0.027913425
249	0xbe0b1b89	-0.13584723
250	0x3d03958e	0.03212505
251	0xbd94551a	-0.07242794
252	0x3c314e0e	0.010821832
253	0xbd8ed6c1	-0.06974555
254	0x3e0c66e4	0.13711125
255	0x3ddb16e7	0.10697728

fc1.bias f4 [64]
0	0xbcb7f122	-0.022453848
1	0xbcededc4	-0.02904404
2	0xbde59e42	-0.11211826
3	0xbe3d909d	-0.18512197
4	0xbe2ee6eb	-0.17080276
5	0x3e28092b	0.16409747
6	0xbe3a1289	-0.18171133
7	0xbe02d733	-0.12777404
8	0xbdaea334	-0.08527222
9	0x3e10aaf6	0.14127716
10	0x3e3efa3a	0.18650141
11	0x3dbd7613	0.092510365
12	0xbe20b5a1	-0.15694286
13	0x3c556bdc	0.013026204
14	0xbda0b4df	-0.078469984
15	0xbd8b3e6e	-0.06799017
16	0x3dff45ed	0.12464509
17	0xbe2bfe28	-0.16796172
18	0x3e4b9882	0.19882396
19	0xbdbd7af4	-0.09251967
20	0x3d33927c	0.04384087
21	0x3dd70bc9	0.10500295
22	0x3d95916f	0.0730313
23	0x3d7180ee	0.058960848
24	0xbddea896	-0.10871999
25	0x3da36fcf	0.0798031
26	0x3d9d3068	0.076752484
27	0xbd3218e5	-0.043480773
28	0x3e06388f	0.13107513
29	0x3df0f6d7	0.11765831
30	0x3e52d258	0.20588052
31	0xbcc818cc	-0.024425887
32	0x3dc1a0e7	0.09454518
33	0x3e1a792f	0.1508529
34	0x3d98b3b2	0.07456149
35	0x3e25745b	0.16157667
36	0xbe30d29a	-0.17267838
37	0xbdbbf2df	-0.09177183
38	0xbe14f69e	-0.14547202
39	0x3da5369c	0.080670565
40	0xbdb08008	-0.0861817
41	0xbcf65f09	-0.030074613
42	0xbe52fd1c	-0.20604366
43	0x3e5fe951	0.21866347
44	0xbe3f40dc	-0.18677086
45	0x3e113e6a	0.14183965
46	0xbdfbce3f	-0.12295198
47	0x3c2d4921	0.010576517
48	0x3d70bfae	0.05877655
49	0x3dd6c4aa	0.104867294
50	0x3d87fdd5	0.066402115
51	0x3e2fcfb9	0.17169084
52	0xbd70f644	-0.058828607
53	0xbe5b8d29	-0.21440567
54	0x3ddf441b	0.10901662
55	0xbe0b7680	-0.13619423
56	0x3db51cf7	0.08843415
57	0xbe4335f9	-0.19063558
58	0xbcf41826	-0.029796671
59	0x3d3f4e15	0.046705324
60	0xbdce60e4	-0.10077074
61	0xbdfcb661	-0.123394735
62	0x3d0a00c9	0.033692155
63	0x3e585aa4	0.21128327

ln1.weight f4 [64]
0	0x3f800000	1.0
1	0x3f800000	1.0
2	0x3f800000	1.0
3	0x3f800000	1.0
4	0x3f800000	1.0
5	0x3f800000	1.0
6	0x3f800000	1.0
7	0x3f800000	1.0
8	0x3f800000	1.0
9	0x3f800000	1.0
10	0x3f800000	1.0
11	0x3f800000	1.0
12	0x3f800000	1.0
13	0x3f800000	1.0
14	0x3f800000	1.0
15	0x3f800000	1.0
16	0x3f800000	1.0
17	0x3f800000	1.0
18	0x3f800000	1.0
19	0x3f800000	1.0
20	0x3f800000	1.0
21	0x3f800000	1.0
22	0x3f800000	1.0
23	0x3f800000	1.0
24	0x3f800000	1.0
25	0x3f800000	1.0
26	0x3f800000	1.0
27	0x3f800000	1.0
28	0x3f800000	1.0
29	0x3f800000	1.0
30	0x3f800000	1.0
31	0x3f800000	1.0
32	0x3f800000	1.0
33	0x3f800000	1.0
34	0x3f800000	1.0
35	0x3f800000	1.0
36	0x3f800000	1.0
37	0x3f800000	1.0
38	0x3f800000	1.0
39	0x3f800000	1.0
40	0x3f800000	1.0
41	0x3f800000	1.0
42	0x3f800000	1.0
43	0x3f800000	1.0
44	0x3f800000	1.0
45	0x3f800000	1.0
46	0x3f800000	1.0
47	0x3f800000	1.0
48	0x3f800000	1.0
49	0x3f800000	1.0
50	0x3f800000	1.0
51	0x3f800000	1.0
52	0x3f800000	1.0
53	0x3f800000	1.0
54	0x3f800000	1.0
55	0x3f800000	1.0
56	0x3f800000	1.0
57	0x3f800000	1.0
58	0x3f800000	1.0
59	0x3f800000	1.0
60	0x3f800000	1.0
61	0x3f800000	1.0
62	0x3f800000	1.0
63	0x3f800000	1.0

ln1.bias f4 [64]
0	0x00000000	0.0
1	0x00000000	0.0
2	0x00000000	0.0
3	0x00000000	0.0
4	0x00000000	0.0
5	0x00000000	0.0
6	0x00000000	0.0
7	0x00000000	0.0
8	0x00000000	0.0
9	0x00000000	0.0
10	0x00000000	0.0
11	0x00000000	0.0
12	0x00000000	0.0
13	0x00000000	0.0
14	0x00000000	0.0
15	0x00000000	0.0
16	0x00000000	0.0
17	0x00000000	0.0
18	0x00000000	0.0
19	0x00000000	0.0
20	0x00000000	0.0
21	0x00000000	0.0
22	0x00000000	0.0
23	0x00000000	0.0
24	0x00000000	0.0
25	0x00000000	0.0
26	0x00000000	0.0
27	0x00000000	0.0
28	0x00000000	0.0
29	0x00000000	0.0
30	0x00000000	0.0
31	0x00000000	0.0
32	0x00000000	0.0
33	0x00000000	0.0
34	0x00000000	0.0
35	0x00000000	0.0
36	0x00000000	0.0
37	0x00000000	0.0
38	0x00000000	0.0
39	0x00000000	0.0
40	0x00000000	0.0
41	0x00000000	0.0
42	0x00000000	0.0
43	0x00000000	0.0
44	0x00000000	0.0
45	0x00000000	0.0
46	0x00000000	0.0
47	0x00000000	0.0
48	0x00000000	0.0
49	0x00000000	0.0
50	0x00000000	0.0
51	0x00000000	0.0
52	0x00000000	0.0
53	0x00000000	0.0
54	0x00000000	0.0
55	0x00000000	0.0
56	0x00000000	0.0
57	0x00000000	0.0
58	0x00000000	0.0
59	0x00000000	0.0
60	0x00000000	0.0
61	0x00000000	0.0
62	0x00000000	0.0
63	0x00000000	0.0

fc2.weight f4 [64, 74]
0	0x3d3eb6b3	0.046560954
1	0x3dbcf65d	0.092266776
2	0x3d4b9d2e	0.049710445
3	0xbd0a390a	-0.033745803
4	0xbddff20f	-0.10934841
5	0xbb9ec780	-0.0048455596
6	0xba84bee8	-0.0010127695
7	0x3ddadf02	0.106870666
8	0x3d162510	0.03665644
9	0xbd19bf02	-0.037535675
10	0xbbc37225	-0.005964535
11	0xbd25ee0d	-0.040510226
12	0x3d6ffd5f	0.058591243
13	0xbd83145b	-0.06400367
14	0x3bcaf1be	0.0061933687
15	0x3c19c96a	0.0093864
16	0xbd5d2b2f	-0.05399626
17	0x388530d4	6.351029e-05
18	0x3da5a858	0.0808875
19	0xbdb05aad	-0.08611045
20	0x3d8d587f	0.06901645
21	0x3dce4e03	0.10073473
22	0x3d85e431	0.06537665
23	0x3cbc3485	0.022974262
24	0x3db0d238	0.08633846
25	0x3cc43291	0.023949893
26	0x3d542df9	0.051801655
27	0x3d848a55	0.06471697
28	0x3cc9edf6	0.024649601
29	0xbb916c8a	-0.0044379877
30	0xbcf71135	-0.030159572
31	0xbd5786b4	-0.052618697
32	0xbd756d34	-0.059918597
33	0xbddc22a6	-0.10748796
34	0x3d25e598	0.04050216
35	0xbdafc4c0	-0.08582449
36	0xbdbb1d6e	-0.09136473
37	0x3dabbd9f	0.08385777
38	0x3c36e666	0.01116333
39	0xbcb2eb93	-0.021840846
40	0xbdb4b70b	-0.08823975
41	0x3daefbcc	0.0854412
42	0xbd842ace	-0.06453477
43	0xbd639368	-0.0555605
44	0x3d8aaa1b	0.06770726
45	0x3ddf2e6e	0.10897528
46	0xbd99f12f	-0.07516705
47	0xbd29f724	-0.041495457
48	0x3de83231	0.11337698
49	0x3d7b0fad	0.061294246
50	0x3c867239	0.016411887
51	0x3d8b3c90	0.06798661
52	0x3dd4a034	0.10382119
53	0x3dd1e7ab	0.10249265
54	0x3dbef182	0.09323408
55	0x3ba4c59e	0.0050284406
56	0x3db4d919	0.088304706
57	0x3d055545	0.032552022
58	0xbc7ce4ed	-0.01543544
59	0xbde1808e	-0.11010848
60	0xbd962cb7	-0.073327474
61	0x3d71b34a	0.059008874
62	0x3dca3320	0.098730326
63	0xbd649d0c	-0.055813834
64	0x3ca0cdb3	0.019629335
65	0x3d146ebd	0.03623842
66	0xbdb0efee	-0.08639513
67	0x3d547608	0.051870376
68	0xbdd0153b	-0.101602994
69	0x3bff62f3	0.007793778
70	0x3c44d43d	0.012013492
71	0xbd2ebbeb	-0.04265968
72	0xbde46a04	-0.111530334
73	0x3dd0d43f	0.10196733
74	0xbd54c49a	-0.051945306
75	0xbdd68aae	-0.1047567
76	0x3c8f0a9e	0.017461117
77	0xbcdece72	-0.02719805
78	0x3c8399a4	0.016064472
79	0x3d63d6e7	0.05562487
80	0x3c6e934a	0.014561484
81	0x3d11c05a	0.03558383
82	0xbb3fff21	-0.0029296356
83	0xbd200253	-0.039064717
84	0xbde91c2f	-0.11382329
85	0xbd806413	-0.06269088
86	0x3d9c87e6	0.07643108
87	0xbdae7a0b	-0.085193716
88	0x3d8c2ffa	0.06845088
89	0x3d5b2121	0.05349839
90	0x3d1c3a6b	0.03814165
91	0xbc84dadd	-0.016217643
92	0x3d3656a1	0.04451621
93	0xbd12b4a2	-0.035816796
94	0xbbcad9ae	-0.0061905
95	0xbd743bcf	-0.05962735
96	0x3dec77d2	0.115462914
97	0x3da65f64	0.08123663
98	0xbda37c1f	-0.079826586
99	0xbdd32b10	-0.10310948
100	0xbd3ea254	-0.046541527
101	0x3dc870a5	0.0978711
102	0x3d9e635a	0.077337936
103	0xbde76764	-0.11299017
104	0xbbedb3b0	-0.0072540864
105	0xbd319969	-0.043359194
106	0xbd716a94	-0.05893953
107	0x3db50aeb	0.08839973
108	0x3da6e003	0.081481956
109	0xbd7274e7	-0.059193518
110	0x3d4ed38b	0.05049471
111	0xbdc1f5a4	-0.0947068
112	0xbb7712ce	-0.0037700417
113	0xbd16ba57	-0.0367988
114	0x3cf15787	0.029460682
115	0xbda7db51	-0.08196128
116	0xbda062c3	-0.07831337
117	0x3dc643b4	0.09680882
118	0xbdb5dbb1	-0.088797934
119	0x3ca10b7d	0.019658798
120	0xbdb86113	-0.090028904
121	0x3d359b18	0.044337362
122	0x3d1de922	0.03855241
123	0x3da0ceb6	0.07851927
124	0x3cd9f913	0.026608026
125	0x3dacc565	0.084360875
126	0x3d1ec53b	0.038762312
127	0xbdce9032	-0.10086097
128	0xbdb68224	-0.08911541
129	0xb8db2076	-0.0001044878
130	0xbdd5cdb8	-0.10439628
131	0xbbb413fa	-0.0054955455
132	0x3d5fe263	0.05465926
133	0x3cd4fbfb	0.02599906
134	0xbd9016de	-0.070356116
135	0x3dda81ea	0.106693104
136	0x3dd802ff	0.105474465
137	0xbd3f44b6	-0.046696387
138	0xbd24e87e	-0.040260784
139	0x3d783499	0.060597036
140	0xbdcc5d2c	-0.099787086
141	0xbb972542	-0.004612596
142	0xbd643383	-0.055713188
143	0x3d9217b5	0.07133428
144	0xbdb8c5dd	-0.090221144
145	0x3dd31dd8	0.103084266
146	0x3dadff77	0.08495992
147	0xbda349c2	-0.079730526
148	0x3da9767e	0.08274554
149	0xbac5b97a	-0.0015085184
150	0xbd92b78a	-0.071639135
151	0xbda8499d	-0.082171656
152	0xbdcf52ec	-0.10123238
153	0xbdd85521	-0.10563112
154	0x3d3f42f4	0.04669471
155	0xbda79a77	-0.08183759
156	0xbc32a01a	-0.010902429
157	0xbd4ba4f8	-0.049717873
158	0xbaa895a2	-0.0012861977
159	0xbde3a604	-0.11115649
160	0x3dd633ec	0.10459122
161	0xbcd3d6c6	-0.025859248
162	0x3de327a5	0.11091546
163	0x3cb963fd	0.022630686
164	0x3d5ccdad	0.053907085
165	0x3de7c4ed	0.113168575
166	0xbc529aba	-0.0128542725
167	0x3d7e195c	0.062035903
168	0xbd7328e9	-0.059365187
169	0xbde1513e	-0.11001824
170	0x3d870999	0.065936275
171	0xbd826422	-0.06366755
172	0xbc285f1d	-0.010276583
173	0x3bd63456	0.0065370006
174	0xbd90c2c2	-0.07068397
175	0x3d3ae3c0	0.045627356
176	0xbc96055f	-0.018313108
177	0xbd5594dc	-0.052143916
178	0xbd9c71b9	-0.076388784
179	0xbd2358b8	-0.03987953
180	0xbd296f2d	-0.04136579
181	0xbd3ffc87	-0.04687169
182	0xbdbcfee4	-0.09228304
183	0x3c5aa1cf	0.013344242
184	0x3c46c5d6	0.012132129
185	0x3ddf2c06	0.10897069
186	0x3cf40292	0.029786382
187	0x3d007aca	0.0313671
188	0x3da7d698	0.081952274
189	0x3cee2ffc	0.029075615
190	0x3d2dc151	0.04242069
191	0x3daba152	0.08380379
192	0xbac71da9	-0.0015191335
193	0xbc611066	-0.01373682
194	0xbd3e8071	-0.04650921
195	0x3d6f12d0	0.05836755
196	0x3c9afdca	0.018919844
197	0xbc54acdf	-0.012980669
198	0xbd685687	-0.056723144
199	0xbd234cd1	-0.03986818
200	0x3c0e4f06	0.008685833
201	0x3dac47eb	0.08412155
202	0x3deb5be3	0.114921354
203	0x3ce7ad06	0.028280746
204	0x3d9fb8e3	0.07798936
205	0x3d377079	0.044784997
206	0x3de24f39	0.11050267
207	0x3db85e95	0.09002415
208	0xbcee46db	-0.02908652
209	0x3ca4ec79	0.02013229
210	0x3d908766	0.07057075
211	0x3de27078	0.11056608
212	0xbdc24a91	-0.09486879
213	0x3de8de01	0.11370469
214	0xbd11455d	-0.03546654
215	0x3ccd2b18	0.025044963
216	0x3cab9de1	0.020949306
217	0x3d91ceb2	0.07119502
218	0x3d74f8e6	0.05980768
219	0xbd87c843	-0.06629994
220	0xbda0e90e	-0.07856952
221	0x3d97bc1f	0.07408928
222	0x3d7793ae	0.060443573
223	0x3cc72aa7	0.02431233
224	0xbde4f2e6	-0.11179142
225	0xbb6ec7e4	-0.0036435062
226	0x3de5b37e	0.11215876
227	0x3d393bc4	0.045223013
228	0xbc44d43d	-0.012013492
229	0xbcf5db00	-0.030011654
230	0xbd4c8ad2	-0.049937077
231	0x3da9d400	0.08292389
232	0xbdbe66cd	-0.092969514
233	0x3cdbf5a9	0.026850538
234	0xbd98e28f	-0.074650876
235	0xbcc5ca3f	-0.02414429
236	0xbda091a3	-0.07840278
237	0xbc5825d1	-0.01319261
238	0x3d427991	0.047479216
239	0xbd021689	-0.031759772
240	0x3db00f4b	0.08596667
241	0x3d801c13	0.06255355
242	0xbde4602f	-0.11151158
243	0xbdbb5cec	-0.09148583
244	0xbdcc413c	-0.0997338
245	0xbdaa104f	-0.08303892
246	0xbcce886b	-0.025211534
247	0xbdbed04e	-0.09317075
248	0x3b86c6e1	0.0041130637
249	0xbd61eacd	-0.055155564
250	0xbdab46aa	-0.083630875
251	0x3d249533	0.04018135
252	0xbdaf1ed8	-0.08550805
253	0x3cfedb0f	0.031110315
254	0x3d0c769f	0.034292813
255	0xbdd58d92	-0.10427393

fc2.bias f4 [64]
0	0xbd95e823	-0.07319667
1	0xbd067c04	-0.032833114
2	0x3dd309a4	0.10304573
3	0xbdebc3c6	-0.1151195
4	0x3d7c6d1a	0.061627485
5	0xbc33bfee	-0.010971053
6	0xbd6c1eb5	-0.057646472
7	0x3dc9cc25	0.098533906
8	0xbd68698c	-0.056741282
9	0x3dbbca0b	0.09169396
10	0x3bc168e4	0.0059023965
11	0xbd2b5dbd	-0.041837443
12	0xbc3b9ee9	-0.011451461
13	0xbca23ce6	-0.01980443
14	0xbdc34446	-0.095345065
15	0x3dd91126	0.10598974
16	0xba994b58	-0.0011695428
17	0xbde1fdd6	-0.110347435
18	0x3d90f428	0.07077819
19	0xbd495395	-0.049151976
20	0x3dc9e040	0.098572254
21	0x3dc4f873	0.096177004
22	0xbc127d8c	-0.0089410655
23	0xbc4cd302	-0.01250148
24	0x3db72519	0.08942623
25	0x3de3dcdd	0.11126111
26	0x3dd5e821	0.10444666
27	0xbdea7f36	-0.11450045
28	0xbd96dc4d	-0.07366238
29	0x3dc3ce14	0.09560791
30	0xbd892098	-0.0669567
31	0xbddab48c	-0.10678968
32	0x3dc7b39f	0.09751057
33	0xbdbee4b1	-0.09320963
34	0xbda5e882	-0.08100988
35	0xbd142eeb	-0.036177557
36	0x3dced1a4	0.100985795
37	0x3dca8076	0.09887783
38	0xbd573a97	-0.05254611
39	0xbd9132c5	-0.07089762
40	0xbce09570	-0.027415007
41	0xbdb6b4bf	-0.08921193
42	0xbd3184dd	-0.0433396
43	0x3d424751	0.047431294
44	0x3c7b840e	0.0153513085
45	0x3d814b6c	0.06313214
46	0x3d845696	0.064618275
47	0xbddd648b	-0.10810193
48	0xbd82420b	-0.06360253
49	0xbda5faf4	-0.08104506
50	0xbd90b3d8	-0.070655525
51	0xbc7c1b01	-0.015387298
52	0xbdc6fd43	-0.097162746
53	0xbda49e2b	-0.08037981
54	0x3dd536d8	0.10410851
55	0x3da1852f	0.07886731
56	0xbdc97a65	-0.09837798
57	0x3d2b67a9	0.041846905
58	0xbd7a76a7	-0.061148312
59	0x3dec6a1e	0.11543678
60	0xbdcfe00e	-0.10150157
61	0x3d3829a7	0.044961598
62	0xbd905703	-0.07047846
63	0x3d3163fb	0.04330824

ln2.weight f4 [64]
0	0x3f800000	1.0
1	0x3f800000	1.0
2	0x3f800000	1.0
3	0x3f800000	1.0
4	0x3f800000	1.0
5	0x3f800000	1.0
6	0x3f800000	1.0
7	0x3f800000	1.0
8	0x3f800000	1.0
9	0x3f800000	1.0
10	0x3f800000	1.0
11	0x3f800000	1.0
12	0x3f800000	1.0
13	0x3f800000	1.0
14	0x3f800000	1.0
15	0x3f800000	1.0
16	0x3f800000	1.0
17	0x3f800000	1.0
18	0x3f800000	1.0
19	0x3f800000	1.0
20	0x3f800000	1.0
21	0x3f800000	1.0
22	0x3f800000	1.0
23	0x3f800000	1.0
24	0x3f800000	1.0
25	0x3f800000	1.0
26	0x3f800000	1.0
27	0x3f800000	1.0
28	0x3f800000	1.0
29	0x3f800000	1.0
30	0x3f800000	1.0
31	0x3f800000	1.0
32	0x3f800000	1.0
33	0x3f800000	1.0
34	0x3f800000	1.0
35	0x3f800000	1.0
36	0x3f800000	1.0
37	0x3f800000	1.0
38	0x3f800000	1.0
39	0x3f800000	1.0
40	0x3f800000	1.0
41	0x3f800000	1.0
42	0x3f800000	1.0
43	0x3f800000	1.0
44	0x3f800000	1.0
45	0x3f800000	1.0
46	0x3f800000	1.0
47	0x3f800000	1.0
48	0x3f800000	1.0
49	0x3f800000	1.0
50	0x3f800000	1.0
51	0x3f800000	1.0
52	0x3f800000	1.0
53	0x3f800000	1.0
54	0x3f800000	1.0
55	0x3f800000	1.0
56	0x3f800000	1.0
57	0x3f800000	1.0
58	0x3f800000	1.0
59	0x3f800000	1.0
60	0x3f800000	1.0
61	0x3f800000	1.0
62	0x3f800000	1.0
63	0x3f800000	1.0

ln2.bias f4 [64]
0	0x00000000	0.0
1	0x00000000	0.0
2	0x00000000	0.0
3	0x00000000	0.0
4	0x00000000	0.0
5	0x00000000	0.0
6	0x00000000	0.0
7	0x00000000	0.0
8	0x00000000	0.0
9	0x00000000	0.0
10	0x00000000	0.0
11	0x00000000	0.0
12	0x00000000	0.0
13	0x00000000	0.0
14	0x00000000	0.0
15	0x00000000	0.0
16	0x00000000	0.0
17	0x00000000	0.0
18	0x00000000	0.0
19	0x00000000	0.0
20	0x00000000	0.0
21	0x00000000	0.0
22	0x00000000	0.0
23	0x00000000	0.0
24	0x00000000	0.0
25	0x00000000	0.0
26	0x00000000	0.0
27	0x00000000	0.0
28	0x00000000	0.0
29	0x00000000	0.0
30	0x00000000	0.0
31	0x00000000	0.0
32	0x00000000	0.0
33	0x00000000	0.0
34	0x00000000	0.0
35	0x00000000	0.0
36	0x00000000	0.0
37	0x00000000	0.0
38	0x00000000	0.0
39	0x00000000	0.0
40	0x00000000	0.0
41	0x00000000	0.0
42	0x00000000	0.0
43	0x00000000	0.0
44	0x00000000	0.0
45	0x00000000	0.0
46	0x00000000	0.0
47	0x00000000	0.0
48	0x00000000	0.0
49	0x00000000	0.0
50	0x00000000	0.0
51	0x00000000	0.0
52	0x00000000	0.0
53	0x00000000	0.0
54	0x00000000	0.0
55	0x00000000	0.0
56	0x00000000	0.0
57	0x00000000	0.0
58	0x00000000	0.0
59	0x00000000	0.0
60	0x00000000	0.0
61	0x00000000	0.0
62	0x00000000	0.0
63	0x00000000	0.0

V.weight f4 [1, 64]
0	0xbd8b5f98	-0.068053424
1	0xbd9966ec	-0.07490334
2	0xbdf53806	-0.11973576
3	0xbc93dfc0	-0.018051028
4	0x3d6bcff4	0.057571366
5	0x3d1c67ec	0.038185045
6	0xbda9c700	-0.08289909
7	0x3b05f240	0.0020438582
8	0x3cf2a268	0.029618457
9	0xbd0ebd14	-0.034848288
10	0xbba42ee0	-0.0050104707
11	0xbdb38016	-0.08764665
12	0xbc9cc238	-0.01913558
13	0x3c55e6b0	0.0130554885
14	0xbd42fdf4	-0.04760547
15	0x3de1ed18	0.1103155
16	0x3df2d226	0.11856489
17	0x3dc6f6a6	0.09715013
18	0xbdc72aae	-0.097249374
19	0x3dd2d3f8	0.10294336
20	0xbdf244dc	-0.1182954
21	0xbde42172	-0.11139192
22	0x3dc437c2	0.095809475
23	0xbdd117f2	-0.10209645
24	0x3d2f2a04	0.04276468
25	0x3de5ece8	0.11226827
26	0x3da1c3bc	0.078986615
27	0x3ddc0bcc	0.107444376
28	0x3d0625c0	0.032750845
29	0x3dc8dbd8	0.09807557
30	0xbc5182c0	-0.012787521
31	0x3ce88988	0.028385893
32	0x3dc9a346	0.09845595
33	0x3de6b970	0.11265838
34	0xbd6145e0	-0.05499828
35	0x3de9e6c0	0.11420965
36	0xbd2d19b8	-0.042260855
37	0xbc9c65a0	-0.019091427
38	0x3db1b542	0.0867715
39	0xbd1ba324	-0.03799738
40	0xbdf27fd6	-0.11840789
41	0x3de1ce1a	0.11025639
42	0x3d6c2984	0.05765678
43	0xbcf2a018	-0.029617354
44	0xbdb52618	-0.088451564
45	0xbd5e59b0	-0.05428475
46	0xbc74a0e0	-0.014930934
47	0x3dd9ae7e	0.10628985
48	0xbcda7a50	-0.026669651
49	0xbdbbccb6	-0.09169905
50	0x3d8e6470	0.06952751
51	0xbda42dea	-0.0801657
52	0xbd017f50	-0.031615555
53	0x3df9d13c	0.121981114
54	0xbda9bcda	-0.08287974
55	0x3db9bd18	0.0906927
56	0x3c544140	0.01295501
57	0x3cbf1bf8	0.023328766
58	0xbd80661c	-0.06269476
59	0x3d836792	0.06416239
60	0x3d6926a0	0.0569216
61	0xbdadf574	-0.08494082
62	0xbd96932e	-0.07352291
63	0xbd877840	-0.06614733
